<?xml version="1.0"?>
<net name="torch_jit" version="11">
	<layers>
		<layer id="0" name="image" type="Parameter" version="opset1">
			<data shape="?,3,416,416" element_type="f32" />
			<output>
				<port id="0" precision="FP32" names="image">
					<dim>-1</dim>
					<dim>3</dim>
					<dim>416</dim>
					<dim>416</dim>
				</port>
			</output>
		</layer>
		<layer id="1" name="Constant_17883" type="Const" version="opset1">
			<data element_type="f32" shape="1, 3, 1, 1" offset="0" size="12" />
			<rt_info>
				<attribute name="preprocessing" version="0" />
			</rt_info>
			<output>
				<port id="0" precision="FP32">
					<dim>1</dim>
					<dim>3</dim>
					<dim>1</dim>
					<dim>1</dim>
				</port>
			</output>
		</layer>
		<layer id="2" name="Multiply_17893" type="Multiply" version="opset1">
			<data auto_broadcast="numpy" />
			<input>
				<port id="0" precision="FP32">
					<dim>-1</dim>
					<dim>3</dim>
					<dim>416</dim>
					<dim>416</dim>
				</port>
				<port id="1" precision="FP32">
					<dim>1</dim>
					<dim>3</dim>
					<dim>1</dim>
					<dim>1</dim>
				</port>
			</input>
			<output>
				<port id="2" precision="FP32">
					<dim>-1</dim>
					<dim>3</dim>
					<dim>416</dim>
					<dim>416</dim>
				</port>
			</output>
		</layer>
		<layer id="3" name="Constant_17895" type="Const" version="opset1">
			<data element_type="f32" shape="1, 3, 1, 1" offset="12" size="12" />
			<output>
				<port id="0" precision="FP32">
					<dim>1</dim>
					<dim>3</dim>
					<dim>1</dim>
					<dim>1</dim>
				</port>
			</output>
		</layer>
		<layer id="4" name="Divide_7746" type="Add" version="opset1">
			<data auto_broadcast="numpy" />
			<input>
				<port id="0" precision="FP32">
					<dim>-1</dim>
					<dim>3</dim>
					<dim>416</dim>
					<dim>416</dim>
				</port>
				<port id="1" precision="FP32">
					<dim>1</dim>
					<dim>3</dim>
					<dim>1</dim>
					<dim>1</dim>
				</port>
			</input>
			<output>
				<port id="2" precision="FP32">
					<dim>-1</dim>
					<dim>3</dim>
					<dim>416</dim>
					<dim>416</dim>
				</port>
			</output>
		</layer>
		<layer id="5" name="Constant_15950" type="Const" version="opset1">
			<data element_type="i64" shape="2" offset="24" size="16" />
			<output>
				<port id="0" precision="I64">
					<dim>2</dim>
				</port>
			</output>
		</layer>
		<layer id="6" name="/backbone/stem/Constant_7" type="Const" version="opset1">
			<data element_type="i64" shape="1" offset="40" size="8" />
			<output>
				<port id="0" precision="I64" names="/backbone/stem/Constant_7_output_0">
					<dim>1</dim>
				</port>
			</output>
		</layer>
		<layer id="7" name="/backbone/stem/Constant_8" type="Const" version="opset1">
			<data element_type="i64" shape="1" offset="48" size="8" />
			<output>
				<port id="0" precision="I64" names="/backbone/stem/Constant_8_output_0">
					<dim>1</dim>
				</port>
			</output>
		</layer>
		<layer id="8" name="/backbone/stem/Shape" type="ShapeOf" version="opset3">
			<data output_type="i64" />
			<input>
				<port id="0" precision="FP32">
					<dim>-1</dim>
					<dim>3</dim>
					<dim>416</dim>
					<dim>416</dim>
				</port>
			</input>
			<output>
				<port id="1" precision="I64" names="/backbone/stem/Shape_1_output_0,/backbone/stem/Shape_2_output_0,/backbone/stem/Shape_output_0">
					<dim>4</dim>
				</port>
			</output>
		</layer>
		<layer id="9" name="Constant_15025" type="Const" version="opset1">
			<data element_type="i64" shape="1" offset="56" size="8" />
			<output>
				<port id="0" precision="I64">
					<dim>1</dim>
				</port>
			</output>
		</layer>
		<layer id="10" name="Constant_180" type="Const" version="opset1">
			<data element_type="i64" shape="" offset="64" size="8" />
			<output>
				<port id="0" precision="I64" />
			</output>
		</layer>
		<layer id="11" name="/backbone/stem/Gather_2" type="Gather" version="opset8">
			<data batch_dims="0" />
			<input>
				<port id="0" precision="I64">
					<dim>4</dim>
				</port>
				<port id="1" precision="I64">
					<dim>1</dim>
				</port>
				<port id="2" precision="I64" />
			</input>
			<output>
				<port id="3" precision="I64" names="/backbone/stem/Unsqueeze_2_output_0">
					<dim>1</dim>
				</port>
			</output>
		</layer>
		<layer id="12" name="/backbone/stem/Concat" type="Concat" version="opset1">
			<data axis="0" />
			<input>
				<port id="0" precision="I64">
					<dim>2</dim>
				</port>
				<port id="1" precision="I64">
					<dim>1</dim>
				</port>
				<port id="2" precision="I64">
					<dim>1</dim>
				</port>
				<port id="3" precision="I64">
					<dim>1</dim>
				</port>
			</input>
			<output>
				<port id="4" precision="I64">
					<dim>5</dim>
				</port>
			</output>
		</layer>
		<layer id="13" name="/backbone/stem/Reshape" type="Reshape" version="opset1">
			<data special_zero="true" />
			<input>
				<port id="0" precision="FP32">
					<dim>-1</dim>
					<dim>3</dim>
					<dim>416</dim>
					<dim>416</dim>
				</port>
				<port id="1" precision="I64">
					<dim>5</dim>
				</port>
			</input>
			<output>
				<port id="2" precision="FP32" names="/backbone/stem/Reshape_output_0">
					<dim>-1</dim>
					<dim>3</dim>
					<dim>208</dim>
					<dim>2</dim>
					<dim>416</dim>
				</port>
			</output>
		</layer>
		<layer id="14" name="Constant_15183" type="Const" version="opset1">
			<data element_type="i64" shape="2" offset="72" size="16" />
			<output>
				<port id="0" precision="I64">
					<dim>2</dim>
				</port>
			</output>
		</layer>
		<layer id="15" name="Constant_15184" type="Const" version="opset1">
			<data element_type="i64" shape="" offset="64" size="8" />
			<output>
				<port id="0" precision="I64" />
			</output>
		</layer>
		<layer id="16" name="Gather_15185" type="Gather" version="opset8">
			<data batch_dims="0" />
			<input>
				<port id="0" precision="I64">
					<dim>4</dim>
				</port>
				<port id="1" precision="I64">
					<dim>2</dim>
				</port>
				<port id="2" precision="I64" />
			</input>
			<output>
				<port id="3" precision="I64">
					<dim>2</dim>
				</port>
			</output>
		</layer>
		<layer id="17" name="Constant_15959" type="Const" version="opset1">
			<data element_type="i64" shape="1" offset="64" size="8" />
			<output>
				<port id="0" precision="I64">
					<dim>1</dim>
				</port>
			</output>
		</layer>
		<layer id="18" name="/backbone/stem/Constant_10" type="Const" version="opset1">
			<data element_type="i64" shape="1" offset="48" size="8" />
			<output>
				<port id="0" precision="I64" names="/backbone/stem/Constant_10_output_0">
					<dim>1</dim>
				</port>
			</output>
		</layer>
		<layer id="19" name="/backbone/stem/Constant_11" type="Const" version="opset1">
			<data element_type="i64" shape="1" offset="40" size="8" />
			<output>
				<port id="0" precision="I64" names="/backbone/stem/Constant_11_output_0">
					<dim>1</dim>
				</port>
			</output>
		</layer>
		<layer id="20" name="/backbone/stem/Constant_12" type="Const" version="opset1">
			<data element_type="i64" shape="1" offset="48" size="8" />
			<output>
				<port id="0" precision="I64" names="/backbone/stem/Constant_12_output_0">
					<dim>1</dim>
				</port>
			</output>
		</layer>
		<layer id="21" name="/backbone/stem/Concat_1" type="Concat" version="opset1">
			<data axis="0" />
			<input>
				<port id="0" precision="I64">
					<dim>2</dim>
				</port>
				<port id="1" precision="I64">
					<dim>1</dim>
				</port>
				<port id="2" precision="I64">
					<dim>1</dim>
				</port>
				<port id="3" precision="I64">
					<dim>1</dim>
				</port>
				<port id="4" precision="I64">
					<dim>1</dim>
				</port>
			</input>
			<output>
				<port id="5" precision="I64">
					<dim>6</dim>
				</port>
			</output>
		</layer>
		<layer id="22" name="/backbone/stem/Reshape_1" type="Reshape" version="opset1">
			<data special_zero="true" />
			<input>
				<port id="0" precision="FP32">
					<dim>-1</dim>
					<dim>3</dim>
					<dim>208</dim>
					<dim>2</dim>
					<dim>416</dim>
				</port>
				<port id="1" precision="I64">
					<dim>6</dim>
				</port>
			</input>
			<output>
				<port id="2" precision="FP32" names="/backbone/stem/Reshape_1_output_0">
					<dim>-1</dim>
					<dim>3</dim>
					<dim>208</dim>
					<dim>2</dim>
					<dim>-1</dim>
					<dim>2</dim>
				</port>
			</output>
		</layer>
		<layer id="23" name="Constant_245" type="Const" version="opset1">
			<data element_type="i64" shape="6" offset="88" size="48" />
			<output>
				<port id="0" precision="I64">
					<dim>6</dim>
				</port>
			</output>
		</layer>
		<layer id="24" name="/backbone/stem/Transpose" type="Transpose" version="opset1">
			<input>
				<port id="0" precision="FP32">
					<dim>-1</dim>
					<dim>3</dim>
					<dim>208</dim>
					<dim>2</dim>
					<dim>-1</dim>
					<dim>2</dim>
				</port>
				<port id="1" precision="I64">
					<dim>6</dim>
				</port>
			</input>
			<output>
				<port id="2" precision="FP32" names="/backbone/stem/Transpose_output_0">
					<dim>-1</dim>
					<dim>2</dim>
					<dim>2</dim>
					<dim>3</dim>
					<dim>208</dim>
					<dim>-1</dim>
				</port>
			</output>
		</layer>
		<layer id="25" name="Constant_15049" type="Const" version="opset1">
			<data element_type="i64" shape="1" offset="64" size="8" />
			<output>
				<port id="0" precision="I64">
					<dim>1</dim>
				</port>
			</output>
		</layer>
		<layer id="26" name="Constant_171" type="Const" version="opset1">
			<data element_type="i64" shape="" offset="64" size="8" />
			<output>
				<port id="0" precision="I64" />
			</output>
		</layer>
		<layer id="27" name="/backbone/stem/Gather" type="Gather" version="opset8">
			<data batch_dims="0" />
			<input>
				<port id="0" precision="I64">
					<dim>4</dim>
				</port>
				<port id="1" precision="I64">
					<dim>1</dim>
				</port>
				<port id="2" precision="I64" />
			</input>
			<output>
				<port id="3" precision="I64" names="/backbone/stem/Unsqueeze_6_output_0">
					<dim>1</dim>
				</port>
			</output>
		</layer>
		<layer id="28" name="/backbone/stem/Constant_3" type="Const" version="opset1">
			<data element_type="i64" shape="" offset="136" size="8" />
			<output>
				<port id="0" precision="I64" names="/backbone/stem/Constant_3_output_0" />
			</output>
		</layer>
		<layer id="29" name="Constant_176" type="Const" version="opset1">
			<data element_type="i64" shape="" offset="64" size="8" />
			<output>
				<port id="0" precision="I64" />
			</output>
		</layer>
		<layer id="30" name="/backbone/stem/Gather_1" type="Gather" version="opset8">
			<data batch_dims="0" />
			<input>
				<port id="0" precision="I64">
					<dim>4</dim>
				</port>
				<port id="1" precision="I64" />
				<port id="2" precision="I64" />
			</input>
			<output>
				<port id="3" precision="I64" names="/backbone/stem/Gather_1_output_0" />
			</output>
		</layer>
		<layer id="31" name="/backbone/stem/Constant_15" type="Const" version="opset1">
			<data element_type="i64" shape="" offset="144" size="8" />
			<output>
				<port id="0" precision="I64" names="/backbone/stem/Constant_15_output_0" />
			</output>
		</layer>
		<layer id="32" name="/backbone/stem/Mul" type="Multiply" version="opset1">
			<data auto_broadcast="numpy" />
			<input>
				<port id="0" precision="I64" />
				<port id="1" precision="I64" />
			</input>
			<output>
				<port id="2" precision="I64" names="/backbone/stem/Mul_output_0" />
			</output>
		</layer>
		<layer id="33" name="Constant_251" type="Const" version="opset1">
			<data element_type="i64" shape="1" offset="64" size="8" />
			<output>
				<port id="0" precision="I64">
					<dim>1</dim>
				</port>
			</output>
		</layer>
		<layer id="34" name="/backbone/stem/Unsqueeze_7" type="Unsqueeze" version="opset1">
			<input>
				<port id="0" precision="I64" />
				<port id="1" precision="I64">
					<dim>1</dim>
				</port>
			</input>
			<output>
				<port id="2" precision="I64" names="/backbone/stem/Unsqueeze_7_output_0">
					<dim>1</dim>
				</port>
			</output>
		</layer>
		<layer id="35" name="/backbone/stem/Shape_4" type="ShapeOf" version="opset3">
			<data output_type="i64" />
			<input>
				<port id="0" precision="FP32">
					<dim>-1</dim>
					<dim>3</dim>
					<dim>208</dim>
					<dim>2</dim>
					<dim>-1</dim>
					<dim>2</dim>
				</port>
			</input>
			<output>
				<port id="1" precision="I64" names="/backbone/stem/Shape_4_output_0,/backbone/stem/Shape_5_output_0">
					<dim>6</dim>
				</port>
			</output>
		</layer>
		<layer id="36" name="Constant_15188" type="Const" version="opset1">
			<data element_type="i64" shape="2" offset="152" size="16" />
			<output>
				<port id="0" precision="I64">
					<dim>2</dim>
				</port>
			</output>
		</layer>
		<layer id="37" name="Constant_15189" type="Const" version="opset1">
			<data element_type="i64" shape="" offset="64" size="8" />
			<output>
				<port id="0" precision="I64" />
			</output>
		</layer>
		<layer id="38" name="Gather_15190" type="Gather" version="opset8">
			<data batch_dims="0" />
			<input>
				<port id="0" precision="I64">
					<dim>6</dim>
				</port>
				<port id="1" precision="I64">
					<dim>2</dim>
				</port>
				<port id="2" precision="I64" />
			</input>
			<output>
				<port id="3" precision="I64">
					<dim>2</dim>
				</port>
			</output>
		</layer>
		<layer id="39" name="/backbone/stem/Concat_2" type="Concat" version="opset1">
			<data axis="0" />
			<input>
				<port id="0" precision="I64">
					<dim>1</dim>
				</port>
				<port id="1" precision="I64">
					<dim>1</dim>
				</port>
				<port id="2" precision="I64">
					<dim>2</dim>
				</port>
			</input>
			<output>
				<port id="3" precision="I64" names="/backbone/stem/Concat_2_output_0">
					<dim>4</dim>
				</port>
			</output>
		</layer>
		<layer id="40" name="/backbone/stem/Reshape_2" type="Reshape" version="opset1">
			<data special_zero="true" />
			<input>
				<port id="0" precision="FP32">
					<dim>-1</dim>
					<dim>2</dim>
					<dim>2</dim>
					<dim>3</dim>
					<dim>208</dim>
					<dim>-1</dim>
				</port>
				<port id="1" precision="I64">
					<dim>4</dim>
				</port>
			</input>
			<output>
				<port id="2" precision="FP32" names="/backbone/stem/Reshape_2_output_0">
					<dim>-1</dim>
					<dim>12</dim>
					<dim>208</dim>
					<dim>-1</dim>
				</port>
			</output>
		</layer>
		<layer id="41" name="onnx::Conv_1325" type="Const" version="opset1">
			<data element_type="f32" shape="24, 12, 3, 3" offset="168" size="10368" />
			<output>
				<port id="0" precision="FP32" names="onnx::Conv_1325">
					<dim>24</dim>
					<dim>12</dim>
					<dim>3</dim>
					<dim>3</dim>
				</port>
			</output>
		</layer>
		<layer id="42" name="/backbone/stem/conv/conv/Conv/WithoutBiases" type="Convolution" version="opset1">
			<data strides="1, 1" dilations="1, 1" pads_begin="1, 1" pads_end="1, 1" auto_pad="explicit" />
			<input>
				<port id="0" precision="FP32">
					<dim>-1</dim>
					<dim>12</dim>
					<dim>208</dim>
					<dim>-1</dim>
				</port>
				<port id="1" precision="FP32">
					<dim>24</dim>
					<dim>12</dim>
					<dim>3</dim>
					<dim>3</dim>
				</port>
			</input>
			<output>
				<port id="2" precision="FP32">
					<dim>-1</dim>
					<dim>24</dim>
					<dim>208</dim>
					<dim>-1</dim>
				</port>
			</output>
		</layer>
		<layer id="43" name="Reshape_288" type="Const" version="opset1">
			<data element_type="f32" shape="1, 24, 1, 1" offset="10536" size="96" />
			<output>
				<port id="0" precision="FP32">
					<dim>1</dim>
					<dim>24</dim>
					<dim>1</dim>
					<dim>1</dim>
				</port>
			</output>
		</layer>
		<layer id="44" name="/backbone/stem/conv/conv/Conv" type="Add" version="opset1">
			<data auto_broadcast="numpy" />
			<input>
				<port id="0" precision="FP32">
					<dim>-1</dim>
					<dim>24</dim>
					<dim>208</dim>
					<dim>-1</dim>
				</port>
				<port id="1" precision="FP32">
					<dim>1</dim>
					<dim>24</dim>
					<dim>1</dim>
					<dim>1</dim>
				</port>
			</input>
			<output>
				<port id="2" precision="FP32" names="/backbone/stem/conv/conv/Conv_output_0">
					<dim>-1</dim>
					<dim>24</dim>
					<dim>208</dim>
					<dim>-1</dim>
				</port>
			</output>
		</layer>
		<layer id="45" name="/backbone/stem/conv/activate/Mul" type="Swish" version="opset4">
			<input>
				<port id="0" precision="FP32">
					<dim>-1</dim>
					<dim>24</dim>
					<dim>208</dim>
					<dim>-1</dim>
				</port>
			</input>
			<output>
				<port id="1" precision="FP32" names="/backbone/stem/conv/activate/Mul_output_0">
					<dim>-1</dim>
					<dim>24</dim>
					<dim>208</dim>
					<dim>-1</dim>
				</port>
			</output>
		</layer>
		<layer id="46" name="onnx::Conv_1328" type="Const" version="opset1">
			<data element_type="f32" shape="48, 24, 3, 3" offset="10632" size="41472" />
			<output>
				<port id="0" precision="FP32" names="onnx::Conv_1328">
					<dim>48</dim>
					<dim>24</dim>
					<dim>3</dim>
					<dim>3</dim>
				</port>
			</output>
		</layer>
		<layer id="47" name="/backbone/stage1/stage1.0/conv/Conv/WithoutBiases" type="Convolution" version="opset1">
			<data strides="2, 2" dilations="1, 1" pads_begin="1, 1" pads_end="1, 1" auto_pad="explicit" />
			<input>
				<port id="0" precision="FP32">
					<dim>-1</dim>
					<dim>24</dim>
					<dim>208</dim>
					<dim>-1</dim>
				</port>
				<port id="1" precision="FP32">
					<dim>48</dim>
					<dim>24</dim>
					<dim>3</dim>
					<dim>3</dim>
				</port>
			</input>
			<output>
				<port id="2" precision="FP32">
					<dim>-1</dim>
					<dim>48</dim>
					<dim>104</dim>
					<dim>-1</dim>
				</port>
			</output>
		</layer>
		<layer id="48" name="Reshape_305" type="Const" version="opset1">
			<data element_type="f32" shape="1, 48, 1, 1" offset="52104" size="192" />
			<output>
				<port id="0" precision="FP32">
					<dim>1</dim>
					<dim>48</dim>
					<dim>1</dim>
					<dim>1</dim>
				</port>
			</output>
		</layer>
		<layer id="49" name="/backbone/stage1/stage1.0/conv/Conv" type="Add" version="opset1">
			<data auto_broadcast="numpy" />
			<input>
				<port id="0" precision="FP32">
					<dim>-1</dim>
					<dim>48</dim>
					<dim>104</dim>
					<dim>-1</dim>
				</port>
				<port id="1" precision="FP32">
					<dim>1</dim>
					<dim>48</dim>
					<dim>1</dim>
					<dim>1</dim>
				</port>
			</input>
			<output>
				<port id="2" precision="FP32" names="/backbone/stage1/stage1.0/conv/Conv_output_0">
					<dim>-1</dim>
					<dim>48</dim>
					<dim>104</dim>
					<dim>-1</dim>
				</port>
			</output>
		</layer>
		<layer id="50" name="/backbone/stage1/stage1.0/activate/Mul" type="Swish" version="opset4">
			<input>
				<port id="0" precision="FP32">
					<dim>-1</dim>
					<dim>48</dim>
					<dim>104</dim>
					<dim>-1</dim>
				</port>
			</input>
			<output>
				<port id="1" precision="FP32" names="/backbone/stage1/stage1.0/activate/Mul_output_0">
					<dim>-1</dim>
					<dim>48</dim>
					<dim>104</dim>
					<dim>-1</dim>
				</port>
			</output>
		</layer>
		<layer id="51" name="onnx::Conv_1334" type="Const" version="opset1">
			<data element_type="f32" shape="24, 48, 1, 1" offset="52296" size="4608" />
			<output>
				<port id="0" precision="FP32" names="onnx::Conv_1334">
					<dim>24</dim>
					<dim>48</dim>
					<dim>1</dim>
					<dim>1</dim>
				</port>
			</output>
		</layer>
		<layer id="52" name="/backbone/stage1/stage1.1/main_conv/conv/Conv/WithoutBiases" type="Convolution" version="opset1">
			<data strides="1, 1" dilations="1, 1" pads_begin="0, 0" pads_end="0, 0" auto_pad="explicit" />
			<input>
				<port id="0" precision="FP32">
					<dim>-1</dim>
					<dim>48</dim>
					<dim>104</dim>
					<dim>-1</dim>
				</port>
				<port id="1" precision="FP32">
					<dim>24</dim>
					<dim>48</dim>
					<dim>1</dim>
					<dim>1</dim>
				</port>
			</input>
			<output>
				<port id="2" precision="FP32">
					<dim>-1</dim>
					<dim>24</dim>
					<dim>104</dim>
					<dim>-1</dim>
				</port>
			</output>
		</layer>
		<layer id="53" name="Reshape_339" type="Const" version="opset1">
			<data element_type="f32" shape="1, 24, 1, 1" offset="56904" size="96" />
			<output>
				<port id="0" precision="FP32">
					<dim>1</dim>
					<dim>24</dim>
					<dim>1</dim>
					<dim>1</dim>
				</port>
			</output>
		</layer>
		<layer id="54" name="/backbone/stage1/stage1.1/main_conv/conv/Conv" type="Add" version="opset1">
			<data auto_broadcast="numpy" />
			<input>
				<port id="0" precision="FP32">
					<dim>-1</dim>
					<dim>24</dim>
					<dim>104</dim>
					<dim>-1</dim>
				</port>
				<port id="1" precision="FP32">
					<dim>1</dim>
					<dim>24</dim>
					<dim>1</dim>
					<dim>1</dim>
				</port>
			</input>
			<output>
				<port id="2" precision="FP32" names="/backbone/stage1/stage1.1/main_conv/conv/Conv_output_0">
					<dim>-1</dim>
					<dim>24</dim>
					<dim>104</dim>
					<dim>-1</dim>
				</port>
			</output>
		</layer>
		<layer id="55" name="/backbone/stage1/stage1.1/main_conv/activate/Mul" type="Swish" version="opset4">
			<input>
				<port id="0" precision="FP32">
					<dim>-1</dim>
					<dim>24</dim>
					<dim>104</dim>
					<dim>-1</dim>
				</port>
			</input>
			<output>
				<port id="1" precision="FP32" names="/backbone/stage1/stage1.1/main_conv/activate/Mul_output_0">
					<dim>-1</dim>
					<dim>24</dim>
					<dim>104</dim>
					<dim>-1</dim>
				</port>
			</output>
		</layer>
		<layer id="56" name="onnx::Conv_1337" type="Const" version="opset1">
			<data element_type="f32" shape="24, 24, 1, 1" offset="57000" size="2304" />
			<output>
				<port id="0" precision="FP32" names="onnx::Conv_1337">
					<dim>24</dim>
					<dim>24</dim>
					<dim>1</dim>
					<dim>1</dim>
				</port>
			</output>
		</layer>
		<layer id="57" name="/backbone/stage1/stage1.1/blocks/blocks.0/conv1/conv/Conv/WithoutBiases" type="Convolution" version="opset1">
			<data strides="1, 1" dilations="1, 1" pads_begin="0, 0" pads_end="0, 0" auto_pad="explicit" />
			<input>
				<port id="0" precision="FP32">
					<dim>-1</dim>
					<dim>24</dim>
					<dim>104</dim>
					<dim>-1</dim>
				</port>
				<port id="1" precision="FP32">
					<dim>24</dim>
					<dim>24</dim>
					<dim>1</dim>
					<dim>1</dim>
				</port>
			</input>
			<output>
				<port id="2" precision="FP32">
					<dim>-1</dim>
					<dim>24</dim>
					<dim>104</dim>
					<dim>-1</dim>
				</port>
			</output>
		</layer>
		<layer id="58" name="Reshape_356" type="Const" version="opset1">
			<data element_type="f32" shape="1, 24, 1, 1" offset="59304" size="96" />
			<output>
				<port id="0" precision="FP32">
					<dim>1</dim>
					<dim>24</dim>
					<dim>1</dim>
					<dim>1</dim>
				</port>
			</output>
		</layer>
		<layer id="59" name="/backbone/stage1/stage1.1/blocks/blocks.0/conv1/conv/Conv" type="Add" version="opset1">
			<data auto_broadcast="numpy" />
			<input>
				<port id="0" precision="FP32">
					<dim>-1</dim>
					<dim>24</dim>
					<dim>104</dim>
					<dim>-1</dim>
				</port>
				<port id="1" precision="FP32">
					<dim>1</dim>
					<dim>24</dim>
					<dim>1</dim>
					<dim>1</dim>
				</port>
			</input>
			<output>
				<port id="2" precision="FP32" names="/backbone/stage1/stage1.1/blocks/blocks.0/conv1/conv/Conv_output_0">
					<dim>-1</dim>
					<dim>24</dim>
					<dim>104</dim>
					<dim>-1</dim>
				</port>
			</output>
		</layer>
		<layer id="60" name="/backbone/stage1/stage1.1/blocks/blocks.0/conv1/activate/Mul" type="Swish" version="opset4">
			<input>
				<port id="0" precision="FP32">
					<dim>-1</dim>
					<dim>24</dim>
					<dim>104</dim>
					<dim>-1</dim>
				</port>
			</input>
			<output>
				<port id="1" precision="FP32" names="/backbone/stage1/stage1.1/blocks/blocks.0/conv1/activate/Mul_output_0">
					<dim>-1</dim>
					<dim>24</dim>
					<dim>104</dim>
					<dim>-1</dim>
				</port>
			</output>
		</layer>
		<layer id="61" name="onnx::Conv_1340" type="Const" version="opset1">
			<data element_type="f32" shape="24, 24, 3, 3" offset="59400" size="20736" />
			<output>
				<port id="0" precision="FP32" names="onnx::Conv_1340">
					<dim>24</dim>
					<dim>24</dim>
					<dim>3</dim>
					<dim>3</dim>
				</port>
			</output>
		</layer>
		<layer id="62" name="/backbone/stage1/stage1.1/blocks/blocks.0/conv2/conv/Conv/WithoutBiases" type="Convolution" version="opset1">
			<data strides="1, 1" dilations="1, 1" pads_begin="1, 1" pads_end="1, 1" auto_pad="explicit" />
			<input>
				<port id="0" precision="FP32">
					<dim>-1</dim>
					<dim>24</dim>
					<dim>104</dim>
					<dim>-1</dim>
				</port>
				<port id="1" precision="FP32">
					<dim>24</dim>
					<dim>24</dim>
					<dim>3</dim>
					<dim>3</dim>
				</port>
			</input>
			<output>
				<port id="2" precision="FP32">
					<dim>-1</dim>
					<dim>24</dim>
					<dim>104</dim>
					<dim>-1</dim>
				</port>
			</output>
		</layer>
		<layer id="63" name="Reshape_373" type="Const" version="opset1">
			<data element_type="f32" shape="1, 24, 1, 1" offset="80136" size="96" />
			<output>
				<port id="0" precision="FP32">
					<dim>1</dim>
					<dim>24</dim>
					<dim>1</dim>
					<dim>1</dim>
				</port>
			</output>
		</layer>
		<layer id="64" name="/backbone/stage1/stage1.1/blocks/blocks.0/conv2/conv/Conv" type="Add" version="opset1">
			<data auto_broadcast="numpy" />
			<input>
				<port id="0" precision="FP32">
					<dim>-1</dim>
					<dim>24</dim>
					<dim>104</dim>
					<dim>-1</dim>
				</port>
				<port id="1" precision="FP32">
					<dim>1</dim>
					<dim>24</dim>
					<dim>1</dim>
					<dim>1</dim>
				</port>
			</input>
			<output>
				<port id="2" precision="FP32" names="/backbone/stage1/stage1.1/blocks/blocks.0/conv2/conv/Conv_output_0">
					<dim>-1</dim>
					<dim>24</dim>
					<dim>104</dim>
					<dim>-1</dim>
				</port>
			</output>
		</layer>
		<layer id="65" name="/backbone/stage1/stage1.1/blocks/blocks.0/conv2/activate/Mul" type="Swish" version="opset4">
			<input>
				<port id="0" precision="FP32">
					<dim>-1</dim>
					<dim>24</dim>
					<dim>104</dim>
					<dim>-1</dim>
				</port>
			</input>
			<output>
				<port id="1" precision="FP32" names="/backbone/stage1/stage1.1/blocks/blocks.0/conv2/activate/Mul_output_0">
					<dim>-1</dim>
					<dim>24</dim>
					<dim>104</dim>
					<dim>-1</dim>
				</port>
			</output>
		</layer>
		<layer id="66" name="/backbone/stage1/stage1.1/blocks/blocks.0/Add" type="Add" version="opset1">
			<data auto_broadcast="numpy" />
			<input>
				<port id="0" precision="FP32">
					<dim>-1</dim>
					<dim>24</dim>
					<dim>104</dim>
					<dim>-1</dim>
				</port>
				<port id="1" precision="FP32">
					<dim>-1</dim>
					<dim>24</dim>
					<dim>104</dim>
					<dim>-1</dim>
				</port>
			</input>
			<output>
				<port id="2" precision="FP32" names="/backbone/stage1/stage1.1/blocks/blocks.0/Add_output_0">
					<dim>-1</dim>
					<dim>24</dim>
					<dim>104</dim>
					<dim>-1</dim>
				</port>
			</output>
		</layer>
		<layer id="67" name="onnx::Conv_1331" type="Const" version="opset1">
			<data element_type="f32" shape="24, 48, 1, 1" offset="80232" size="4608" />
			<output>
				<port id="0" precision="FP32" names="onnx::Conv_1331">
					<dim>24</dim>
					<dim>48</dim>
					<dim>1</dim>
					<dim>1</dim>
				</port>
			</output>
		</layer>
		<layer id="68" name="/backbone/stage1/stage1.1/short_conv/conv/Conv/WithoutBiases" type="Convolution" version="opset1">
			<data strides="1, 1" dilations="1, 1" pads_begin="0, 0" pads_end="0, 0" auto_pad="explicit" />
			<input>
				<port id="0" precision="FP32">
					<dim>-1</dim>
					<dim>48</dim>
					<dim>104</dim>
					<dim>-1</dim>
				</port>
				<port id="1" precision="FP32">
					<dim>24</dim>
					<dim>48</dim>
					<dim>1</dim>
					<dim>1</dim>
				</port>
			</input>
			<output>
				<port id="2" precision="FP32">
					<dim>-1</dim>
					<dim>24</dim>
					<dim>104</dim>
					<dim>-1</dim>
				</port>
			</output>
		</layer>
		<layer id="69" name="Reshape_322" type="Const" version="opset1">
			<data element_type="f32" shape="1, 24, 1, 1" offset="84840" size="96" />
			<output>
				<port id="0" precision="FP32">
					<dim>1</dim>
					<dim>24</dim>
					<dim>1</dim>
					<dim>1</dim>
				</port>
			</output>
		</layer>
		<layer id="70" name="/backbone/stage1/stage1.1/short_conv/conv/Conv" type="Add" version="opset1">
			<data auto_broadcast="numpy" />
			<input>
				<port id="0" precision="FP32">
					<dim>-1</dim>
					<dim>24</dim>
					<dim>104</dim>
					<dim>-1</dim>
				</port>
				<port id="1" precision="FP32">
					<dim>1</dim>
					<dim>24</dim>
					<dim>1</dim>
					<dim>1</dim>
				</port>
			</input>
			<output>
				<port id="2" precision="FP32" names="/backbone/stage1/stage1.1/short_conv/conv/Conv_output_0">
					<dim>-1</dim>
					<dim>24</dim>
					<dim>104</dim>
					<dim>-1</dim>
				</port>
			</output>
		</layer>
		<layer id="71" name="/backbone/stage1/stage1.1/short_conv/activate/Mul" type="Swish" version="opset4">
			<input>
				<port id="0" precision="FP32">
					<dim>-1</dim>
					<dim>24</dim>
					<dim>104</dim>
					<dim>-1</dim>
				</port>
			</input>
			<output>
				<port id="1" precision="FP32" names="/backbone/stage1/stage1.1/short_conv/activate/Mul_output_0">
					<dim>-1</dim>
					<dim>24</dim>
					<dim>104</dim>
					<dim>-1</dim>
				</port>
			</output>
		</layer>
		<layer id="72" name="/backbone/stage1/stage1.1/Concat" type="Concat" version="opset1">
			<data axis="1" />
			<input>
				<port id="0" precision="FP32">
					<dim>-1</dim>
					<dim>24</dim>
					<dim>104</dim>
					<dim>-1</dim>
				</port>
				<port id="1" precision="FP32">
					<dim>-1</dim>
					<dim>24</dim>
					<dim>104</dim>
					<dim>-1</dim>
				</port>
			</input>
			<output>
				<port id="2" precision="FP32" names="/backbone/stage1/stage1.1/Concat_output_0">
					<dim>-1</dim>
					<dim>48</dim>
					<dim>104</dim>
					<dim>-1</dim>
				</port>
			</output>
		</layer>
		<layer id="73" name="onnx::Conv_1343" type="Const" version="opset1">
			<data element_type="f32" shape="48, 48, 1, 1" offset="84936" size="9216" />
			<output>
				<port id="0" precision="FP32" names="onnx::Conv_1343">
					<dim>48</dim>
					<dim>48</dim>
					<dim>1</dim>
					<dim>1</dim>
				</port>
			</output>
		</layer>
		<layer id="74" name="/backbone/stage1/stage1.1/final_conv/conv/Conv/WithoutBiases" type="Convolution" version="opset1">
			<data strides="1, 1" dilations="1, 1" pads_begin="0, 0" pads_end="0, 0" auto_pad="explicit" />
			<input>
				<port id="0" precision="FP32">
					<dim>-1</dim>
					<dim>48</dim>
					<dim>104</dim>
					<dim>-1</dim>
				</port>
				<port id="1" precision="FP32">
					<dim>48</dim>
					<dim>48</dim>
					<dim>1</dim>
					<dim>1</dim>
				</port>
			</input>
			<output>
				<port id="2" precision="FP32">
					<dim>-1</dim>
					<dim>48</dim>
					<dim>104</dim>
					<dim>-1</dim>
				</port>
			</output>
		</layer>
		<layer id="75" name="Reshape_392" type="Const" version="opset1">
			<data element_type="f32" shape="1, 48, 1, 1" offset="94152" size="192" />
			<output>
				<port id="0" precision="FP32">
					<dim>1</dim>
					<dim>48</dim>
					<dim>1</dim>
					<dim>1</dim>
				</port>
			</output>
		</layer>
		<layer id="76" name="/backbone/stage1/stage1.1/final_conv/conv/Conv" type="Add" version="opset1">
			<data auto_broadcast="numpy" />
			<input>
				<port id="0" precision="FP32">
					<dim>-1</dim>
					<dim>48</dim>
					<dim>104</dim>
					<dim>-1</dim>
				</port>
				<port id="1" precision="FP32">
					<dim>1</dim>
					<dim>48</dim>
					<dim>1</dim>
					<dim>1</dim>
				</port>
			</input>
			<output>
				<port id="2" precision="FP32" names="/backbone/stage1/stage1.1/final_conv/conv/Conv_output_0">
					<dim>-1</dim>
					<dim>48</dim>
					<dim>104</dim>
					<dim>-1</dim>
				</port>
			</output>
		</layer>
		<layer id="77" name="/backbone/stage1/stage1.1/final_conv/activate/Mul" type="Swish" version="opset4">
			<input>
				<port id="0" precision="FP32">
					<dim>-1</dim>
					<dim>48</dim>
					<dim>104</dim>
					<dim>-1</dim>
				</port>
			</input>
			<output>
				<port id="1" precision="FP32" names="/backbone/stage1/stage1.1/final_conv/activate/Mul_output_0">
					<dim>-1</dim>
					<dim>48</dim>
					<dim>104</dim>
					<dim>-1</dim>
				</port>
			</output>
		</layer>
		<layer id="78" name="onnx::Conv_1346" type="Const" version="opset1">
			<data element_type="f32" shape="96, 48, 3, 3" offset="94344" size="165888" />
			<output>
				<port id="0" precision="FP32" names="onnx::Conv_1346">
					<dim>96</dim>
					<dim>48</dim>
					<dim>3</dim>
					<dim>3</dim>
				</port>
			</output>
		</layer>
		<layer id="79" name="/backbone/stage2/stage2.0/conv/Conv/WithoutBiases" type="Convolution" version="opset1">
			<data strides="2, 2" dilations="1, 1" pads_begin="1, 1" pads_end="1, 1" auto_pad="explicit" />
			<input>
				<port id="0" precision="FP32">
					<dim>-1</dim>
					<dim>48</dim>
					<dim>104</dim>
					<dim>-1</dim>
				</port>
				<port id="1" precision="FP32">
					<dim>96</dim>
					<dim>48</dim>
					<dim>3</dim>
					<dim>3</dim>
				</port>
			</input>
			<output>
				<port id="2" precision="FP32">
					<dim>-1</dim>
					<dim>96</dim>
					<dim>52</dim>
					<dim>-1</dim>
				</port>
			</output>
		</layer>
		<layer id="80" name="Reshape_409" type="Const" version="opset1">
			<data element_type="f32" shape="1, 96, 1, 1" offset="260232" size="384" />
			<output>
				<port id="0" precision="FP32">
					<dim>1</dim>
					<dim>96</dim>
					<dim>1</dim>
					<dim>1</dim>
				</port>
			</output>
		</layer>
		<layer id="81" name="/backbone/stage2/stage2.0/conv/Conv" type="Add" version="opset1">
			<data auto_broadcast="numpy" />
			<input>
				<port id="0" precision="FP32">
					<dim>-1</dim>
					<dim>96</dim>
					<dim>52</dim>
					<dim>-1</dim>
				</port>
				<port id="1" precision="FP32">
					<dim>1</dim>
					<dim>96</dim>
					<dim>1</dim>
					<dim>1</dim>
				</port>
			</input>
			<output>
				<port id="2" precision="FP32" names="/backbone/stage2/stage2.0/conv/Conv_output_0">
					<dim>-1</dim>
					<dim>96</dim>
					<dim>52</dim>
					<dim>-1</dim>
				</port>
			</output>
		</layer>
		<layer id="82" name="/backbone/stage2/stage2.0/activate/Mul" type="Swish" version="opset4">
			<input>
				<port id="0" precision="FP32">
					<dim>-1</dim>
					<dim>96</dim>
					<dim>52</dim>
					<dim>-1</dim>
				</port>
			</input>
			<output>
				<port id="1" precision="FP32" names="/backbone/stage2/stage2.0/activate/Mul_output_0">
					<dim>-1</dim>
					<dim>96</dim>
					<dim>52</dim>
					<dim>-1</dim>
				</port>
			</output>
		</layer>
		<layer id="83" name="onnx::Conv_1352" type="Const" version="opset1">
			<data element_type="f32" shape="48, 96, 1, 1" offset="260616" size="18432" />
			<output>
				<port id="0" precision="FP32" names="onnx::Conv_1352">
					<dim>48</dim>
					<dim>96</dim>
					<dim>1</dim>
					<dim>1</dim>
				</port>
			</output>
		</layer>
		<layer id="84" name="/backbone/stage2/stage2.1/main_conv/conv/Conv/WithoutBiases" type="Convolution" version="opset1">
			<data strides="1, 1" dilations="1, 1" pads_begin="0, 0" pads_end="0, 0" auto_pad="explicit" />
			<input>
				<port id="0" precision="FP32">
					<dim>-1</dim>
					<dim>96</dim>
					<dim>52</dim>
					<dim>-1</dim>
				</port>
				<port id="1" precision="FP32">
					<dim>48</dim>
					<dim>96</dim>
					<dim>1</dim>
					<dim>1</dim>
				</port>
			</input>
			<output>
				<port id="2" precision="FP32">
					<dim>-1</dim>
					<dim>48</dim>
					<dim>52</dim>
					<dim>-1</dim>
				</port>
			</output>
		</layer>
		<layer id="85" name="Reshape_443" type="Const" version="opset1">
			<data element_type="f32" shape="1, 48, 1, 1" offset="279048" size="192" />
			<output>
				<port id="0" precision="FP32">
					<dim>1</dim>
					<dim>48</dim>
					<dim>1</dim>
					<dim>1</dim>
				</port>
			</output>
		</layer>
		<layer id="86" name="/backbone/stage2/stage2.1/main_conv/conv/Conv" type="Add" version="opset1">
			<data auto_broadcast="numpy" />
			<input>
				<port id="0" precision="FP32">
					<dim>-1</dim>
					<dim>48</dim>
					<dim>52</dim>
					<dim>-1</dim>
				</port>
				<port id="1" precision="FP32">
					<dim>1</dim>
					<dim>48</dim>
					<dim>1</dim>
					<dim>1</dim>
				</port>
			</input>
			<output>
				<port id="2" precision="FP32" names="/backbone/stage2/stage2.1/main_conv/conv/Conv_output_0">
					<dim>-1</dim>
					<dim>48</dim>
					<dim>52</dim>
					<dim>-1</dim>
				</port>
			</output>
		</layer>
		<layer id="87" name="/backbone/stage2/stage2.1/main_conv/activate/Mul" type="Swish" version="opset4">
			<input>
				<port id="0" precision="FP32">
					<dim>-1</dim>
					<dim>48</dim>
					<dim>52</dim>
					<dim>-1</dim>
				</port>
			</input>
			<output>
				<port id="1" precision="FP32" names="/backbone/stage2/stage2.1/main_conv/activate/Mul_output_0">
					<dim>-1</dim>
					<dim>48</dim>
					<dim>52</dim>
					<dim>-1</dim>
				</port>
			</output>
		</layer>
		<layer id="88" name="onnx::Conv_1355" type="Const" version="opset1">
			<data element_type="f32" shape="48, 48, 1, 1" offset="279240" size="9216" />
			<output>
				<port id="0" precision="FP32" names="onnx::Conv_1355">
					<dim>48</dim>
					<dim>48</dim>
					<dim>1</dim>
					<dim>1</dim>
				</port>
			</output>
		</layer>
		<layer id="89" name="/backbone/stage2/stage2.1/blocks/blocks.0/conv1/conv/Conv/WithoutBiases" type="Convolution" version="opset1">
			<data strides="1, 1" dilations="1, 1" pads_begin="0, 0" pads_end="0, 0" auto_pad="explicit" />
			<input>
				<port id="0" precision="FP32">
					<dim>-1</dim>
					<dim>48</dim>
					<dim>52</dim>
					<dim>-1</dim>
				</port>
				<port id="1" precision="FP32">
					<dim>48</dim>
					<dim>48</dim>
					<dim>1</dim>
					<dim>1</dim>
				</port>
			</input>
			<output>
				<port id="2" precision="FP32">
					<dim>-1</dim>
					<dim>48</dim>
					<dim>52</dim>
					<dim>-1</dim>
				</port>
			</output>
		</layer>
		<layer id="90" name="Reshape_460" type="Const" version="opset1">
			<data element_type="f32" shape="1, 48, 1, 1" offset="288456" size="192" />
			<output>
				<port id="0" precision="FP32">
					<dim>1</dim>
					<dim>48</dim>
					<dim>1</dim>
					<dim>1</dim>
				</port>
			</output>
		</layer>
		<layer id="91" name="/backbone/stage2/stage2.1/blocks/blocks.0/conv1/conv/Conv" type="Add" version="opset1">
			<data auto_broadcast="numpy" />
			<input>
				<port id="0" precision="FP32">
					<dim>-1</dim>
					<dim>48</dim>
					<dim>52</dim>
					<dim>-1</dim>
				</port>
				<port id="1" precision="FP32">
					<dim>1</dim>
					<dim>48</dim>
					<dim>1</dim>
					<dim>1</dim>
				</port>
			</input>
			<output>
				<port id="2" precision="FP32" names="/backbone/stage2/stage2.1/blocks/blocks.0/conv1/conv/Conv_output_0">
					<dim>-1</dim>
					<dim>48</dim>
					<dim>52</dim>
					<dim>-1</dim>
				</port>
			</output>
		</layer>
		<layer id="92" name="/backbone/stage2/stage2.1/blocks/blocks.0/conv1/activate/Mul" type="Swish" version="opset4">
			<input>
				<port id="0" precision="FP32">
					<dim>-1</dim>
					<dim>48</dim>
					<dim>52</dim>
					<dim>-1</dim>
				</port>
			</input>
			<output>
				<port id="1" precision="FP32" names="/backbone/stage2/stage2.1/blocks/blocks.0/conv1/activate/Mul_output_0">
					<dim>-1</dim>
					<dim>48</dim>
					<dim>52</dim>
					<dim>-1</dim>
				</port>
			</output>
		</layer>
		<layer id="93" name="onnx::Conv_1358" type="Const" version="opset1">
			<data element_type="f32" shape="48, 48, 3, 3" offset="288648" size="82944" />
			<output>
				<port id="0" precision="FP32" names="onnx::Conv_1358">
					<dim>48</dim>
					<dim>48</dim>
					<dim>3</dim>
					<dim>3</dim>
				</port>
			</output>
		</layer>
		<layer id="94" name="/backbone/stage2/stage2.1/blocks/blocks.0/conv2/conv/Conv/WithoutBiases" type="Convolution" version="opset1">
			<data strides="1, 1" dilations="1, 1" pads_begin="1, 1" pads_end="1, 1" auto_pad="explicit" />
			<input>
				<port id="0" precision="FP32">
					<dim>-1</dim>
					<dim>48</dim>
					<dim>52</dim>
					<dim>-1</dim>
				</port>
				<port id="1" precision="FP32">
					<dim>48</dim>
					<dim>48</dim>
					<dim>3</dim>
					<dim>3</dim>
				</port>
			</input>
			<output>
				<port id="2" precision="FP32">
					<dim>-1</dim>
					<dim>48</dim>
					<dim>52</dim>
					<dim>-1</dim>
				</port>
			</output>
		</layer>
		<layer id="95" name="Reshape_477" type="Const" version="opset1">
			<data element_type="f32" shape="1, 48, 1, 1" offset="371592" size="192" />
			<output>
				<port id="0" precision="FP32">
					<dim>1</dim>
					<dim>48</dim>
					<dim>1</dim>
					<dim>1</dim>
				</port>
			</output>
		</layer>
		<layer id="96" name="/backbone/stage2/stage2.1/blocks/blocks.0/conv2/conv/Conv" type="Add" version="opset1">
			<data auto_broadcast="numpy" />
			<input>
				<port id="0" precision="FP32">
					<dim>-1</dim>
					<dim>48</dim>
					<dim>52</dim>
					<dim>-1</dim>
				</port>
				<port id="1" precision="FP32">
					<dim>1</dim>
					<dim>48</dim>
					<dim>1</dim>
					<dim>1</dim>
				</port>
			</input>
			<output>
				<port id="2" precision="FP32" names="/backbone/stage2/stage2.1/blocks/blocks.0/conv2/conv/Conv_output_0">
					<dim>-1</dim>
					<dim>48</dim>
					<dim>52</dim>
					<dim>-1</dim>
				</port>
			</output>
		</layer>
		<layer id="97" name="/backbone/stage2/stage2.1/blocks/blocks.0/conv2/activate/Mul" type="Swish" version="opset4">
			<input>
				<port id="0" precision="FP32">
					<dim>-1</dim>
					<dim>48</dim>
					<dim>52</dim>
					<dim>-1</dim>
				</port>
			</input>
			<output>
				<port id="1" precision="FP32" names="/backbone/stage2/stage2.1/blocks/blocks.0/conv2/activate/Mul_output_0">
					<dim>-1</dim>
					<dim>48</dim>
					<dim>52</dim>
					<dim>-1</dim>
				</port>
			</output>
		</layer>
		<layer id="98" name="/backbone/stage2/stage2.1/blocks/blocks.0/Add" type="Add" version="opset1">
			<data auto_broadcast="numpy" />
			<input>
				<port id="0" precision="FP32">
					<dim>-1</dim>
					<dim>48</dim>
					<dim>52</dim>
					<dim>-1</dim>
				</port>
				<port id="1" precision="FP32">
					<dim>-1</dim>
					<dim>48</dim>
					<dim>52</dim>
					<dim>-1</dim>
				</port>
			</input>
			<output>
				<port id="2" precision="FP32" names="/backbone/stage2/stage2.1/blocks/blocks.0/Add_output_0">
					<dim>-1</dim>
					<dim>48</dim>
					<dim>52</dim>
					<dim>-1</dim>
				</port>
			</output>
		</layer>
		<layer id="99" name="onnx::Conv_1361" type="Const" version="opset1">
			<data element_type="f32" shape="48, 48, 1, 1" offset="371784" size="9216" />
			<output>
				<port id="0" precision="FP32" names="onnx::Conv_1361">
					<dim>48</dim>
					<dim>48</dim>
					<dim>1</dim>
					<dim>1</dim>
				</port>
			</output>
		</layer>
		<layer id="100" name="/backbone/stage2/stage2.1/blocks/blocks.1/conv1/conv/Conv/WithoutBiases" type="Convolution" version="opset1">
			<data strides="1, 1" dilations="1, 1" pads_begin="0, 0" pads_end="0, 0" auto_pad="explicit" />
			<input>
				<port id="0" precision="FP32">
					<dim>-1</dim>
					<dim>48</dim>
					<dim>52</dim>
					<dim>-1</dim>
				</port>
				<port id="1" precision="FP32">
					<dim>48</dim>
					<dim>48</dim>
					<dim>1</dim>
					<dim>1</dim>
				</port>
			</input>
			<output>
				<port id="2" precision="FP32">
					<dim>-1</dim>
					<dim>48</dim>
					<dim>52</dim>
					<dim>-1</dim>
				</port>
			</output>
		</layer>
		<layer id="101" name="Reshape_495" type="Const" version="opset1">
			<data element_type="f32" shape="1, 48, 1, 1" offset="381000" size="192" />
			<output>
				<port id="0" precision="FP32">
					<dim>1</dim>
					<dim>48</dim>
					<dim>1</dim>
					<dim>1</dim>
				</port>
			</output>
		</layer>
		<layer id="102" name="/backbone/stage2/stage2.1/blocks/blocks.1/conv1/conv/Conv" type="Add" version="opset1">
			<data auto_broadcast="numpy" />
			<input>
				<port id="0" precision="FP32">
					<dim>-1</dim>
					<dim>48</dim>
					<dim>52</dim>
					<dim>-1</dim>
				</port>
				<port id="1" precision="FP32">
					<dim>1</dim>
					<dim>48</dim>
					<dim>1</dim>
					<dim>1</dim>
				</port>
			</input>
			<output>
				<port id="2" precision="FP32" names="/backbone/stage2/stage2.1/blocks/blocks.1/conv1/conv/Conv_output_0">
					<dim>-1</dim>
					<dim>48</dim>
					<dim>52</dim>
					<dim>-1</dim>
				</port>
			</output>
		</layer>
		<layer id="103" name="/backbone/stage2/stage2.1/blocks/blocks.1/conv1/activate/Mul" type="Swish" version="opset4">
			<input>
				<port id="0" precision="FP32">
					<dim>-1</dim>
					<dim>48</dim>
					<dim>52</dim>
					<dim>-1</dim>
				</port>
			</input>
			<output>
				<port id="1" precision="FP32" names="/backbone/stage2/stage2.1/blocks/blocks.1/conv1/activate/Mul_output_0">
					<dim>-1</dim>
					<dim>48</dim>
					<dim>52</dim>
					<dim>-1</dim>
				</port>
			</output>
		</layer>
		<layer id="104" name="onnx::Conv_1364" type="Const" version="opset1">
			<data element_type="f32" shape="48, 48, 3, 3" offset="381192" size="82944" />
			<output>
				<port id="0" precision="FP32" names="onnx::Conv_1364">
					<dim>48</dim>
					<dim>48</dim>
					<dim>3</dim>
					<dim>3</dim>
				</port>
			</output>
		</layer>
		<layer id="105" name="/backbone/stage2/stage2.1/blocks/blocks.1/conv2/conv/Conv/WithoutBiases" type="Convolution" version="opset1">
			<data strides="1, 1" dilations="1, 1" pads_begin="1, 1" pads_end="1, 1" auto_pad="explicit" />
			<input>
				<port id="0" precision="FP32">
					<dim>-1</dim>
					<dim>48</dim>
					<dim>52</dim>
					<dim>-1</dim>
				</port>
				<port id="1" precision="FP32">
					<dim>48</dim>
					<dim>48</dim>
					<dim>3</dim>
					<dim>3</dim>
				</port>
			</input>
			<output>
				<port id="2" precision="FP32">
					<dim>-1</dim>
					<dim>48</dim>
					<dim>52</dim>
					<dim>-1</dim>
				</port>
			</output>
		</layer>
		<layer id="106" name="Reshape_512" type="Const" version="opset1">
			<data element_type="f32" shape="1, 48, 1, 1" offset="464136" size="192" />
			<output>
				<port id="0" precision="FP32">
					<dim>1</dim>
					<dim>48</dim>
					<dim>1</dim>
					<dim>1</dim>
				</port>
			</output>
		</layer>
		<layer id="107" name="/backbone/stage2/stage2.1/blocks/blocks.1/conv2/conv/Conv" type="Add" version="opset1">
			<data auto_broadcast="numpy" />
			<input>
				<port id="0" precision="FP32">
					<dim>-1</dim>
					<dim>48</dim>
					<dim>52</dim>
					<dim>-1</dim>
				</port>
				<port id="1" precision="FP32">
					<dim>1</dim>
					<dim>48</dim>
					<dim>1</dim>
					<dim>1</dim>
				</port>
			</input>
			<output>
				<port id="2" precision="FP32" names="/backbone/stage2/stage2.1/blocks/blocks.1/conv2/conv/Conv_output_0">
					<dim>-1</dim>
					<dim>48</dim>
					<dim>52</dim>
					<dim>-1</dim>
				</port>
			</output>
		</layer>
		<layer id="108" name="/backbone/stage2/stage2.1/blocks/blocks.1/conv2/activate/Mul" type="Swish" version="opset4">
			<input>
				<port id="0" precision="FP32">
					<dim>-1</dim>
					<dim>48</dim>
					<dim>52</dim>
					<dim>-1</dim>
				</port>
			</input>
			<output>
				<port id="1" precision="FP32" names="/backbone/stage2/stage2.1/blocks/blocks.1/conv2/activate/Mul_output_0">
					<dim>-1</dim>
					<dim>48</dim>
					<dim>52</dim>
					<dim>-1</dim>
				</port>
			</output>
		</layer>
		<layer id="109" name="/backbone/stage2/stage2.1/blocks/blocks.1/Add" type="Add" version="opset1">
			<data auto_broadcast="numpy" />
			<input>
				<port id="0" precision="FP32">
					<dim>-1</dim>
					<dim>48</dim>
					<dim>52</dim>
					<dim>-1</dim>
				</port>
				<port id="1" precision="FP32">
					<dim>-1</dim>
					<dim>48</dim>
					<dim>52</dim>
					<dim>-1</dim>
				</port>
			</input>
			<output>
				<port id="2" precision="FP32" names="/backbone/stage2/stage2.1/blocks/blocks.1/Add_output_0">
					<dim>-1</dim>
					<dim>48</dim>
					<dim>52</dim>
					<dim>-1</dim>
				</port>
			</output>
		</layer>
		<layer id="110" name="onnx::Conv_1367" type="Const" version="opset1">
			<data element_type="f32" shape="48, 48, 1, 1" offset="464328" size="9216" />
			<output>
				<port id="0" precision="FP32" names="onnx::Conv_1367">
					<dim>48</dim>
					<dim>48</dim>
					<dim>1</dim>
					<dim>1</dim>
				</port>
			</output>
		</layer>
		<layer id="111" name="/backbone/stage2/stage2.1/blocks/blocks.2/conv1/conv/Conv/WithoutBiases" type="Convolution" version="opset1">
			<data strides="1, 1" dilations="1, 1" pads_begin="0, 0" pads_end="0, 0" auto_pad="explicit" />
			<input>
				<port id="0" precision="FP32">
					<dim>-1</dim>
					<dim>48</dim>
					<dim>52</dim>
					<dim>-1</dim>
				</port>
				<port id="1" precision="FP32">
					<dim>48</dim>
					<dim>48</dim>
					<dim>1</dim>
					<dim>1</dim>
				</port>
			</input>
			<output>
				<port id="2" precision="FP32">
					<dim>-1</dim>
					<dim>48</dim>
					<dim>52</dim>
					<dim>-1</dim>
				</port>
			</output>
		</layer>
		<layer id="112" name="Reshape_530" type="Const" version="opset1">
			<data element_type="f32" shape="1, 48, 1, 1" offset="473544" size="192" />
			<output>
				<port id="0" precision="FP32">
					<dim>1</dim>
					<dim>48</dim>
					<dim>1</dim>
					<dim>1</dim>
				</port>
			</output>
		</layer>
		<layer id="113" name="/backbone/stage2/stage2.1/blocks/blocks.2/conv1/conv/Conv" type="Add" version="opset1">
			<data auto_broadcast="numpy" />
			<input>
				<port id="0" precision="FP32">
					<dim>-1</dim>
					<dim>48</dim>
					<dim>52</dim>
					<dim>-1</dim>
				</port>
				<port id="1" precision="FP32">
					<dim>1</dim>
					<dim>48</dim>
					<dim>1</dim>
					<dim>1</dim>
				</port>
			</input>
			<output>
				<port id="2" precision="FP32" names="/backbone/stage2/stage2.1/blocks/blocks.2/conv1/conv/Conv_output_0">
					<dim>-1</dim>
					<dim>48</dim>
					<dim>52</dim>
					<dim>-1</dim>
				</port>
			</output>
		</layer>
		<layer id="114" name="/backbone/stage2/stage2.1/blocks/blocks.2/conv1/activate/Mul" type="Swish" version="opset4">
			<input>
				<port id="0" precision="FP32">
					<dim>-1</dim>
					<dim>48</dim>
					<dim>52</dim>
					<dim>-1</dim>
				</port>
			</input>
			<output>
				<port id="1" precision="FP32" names="/backbone/stage2/stage2.1/blocks/blocks.2/conv1/activate/Mul_output_0">
					<dim>-1</dim>
					<dim>48</dim>
					<dim>52</dim>
					<dim>-1</dim>
				</port>
			</output>
		</layer>
		<layer id="115" name="onnx::Conv_1370" type="Const" version="opset1">
			<data element_type="f32" shape="48, 48, 3, 3" offset="473736" size="82944" />
			<output>
				<port id="0" precision="FP32" names="onnx::Conv_1370">
					<dim>48</dim>
					<dim>48</dim>
					<dim>3</dim>
					<dim>3</dim>
				</port>
			</output>
		</layer>
		<layer id="116" name="/backbone/stage2/stage2.1/blocks/blocks.2/conv2/conv/Conv/WithoutBiases" type="Convolution" version="opset1">
			<data strides="1, 1" dilations="1, 1" pads_begin="1, 1" pads_end="1, 1" auto_pad="explicit" />
			<input>
				<port id="0" precision="FP32">
					<dim>-1</dim>
					<dim>48</dim>
					<dim>52</dim>
					<dim>-1</dim>
				</port>
				<port id="1" precision="FP32">
					<dim>48</dim>
					<dim>48</dim>
					<dim>3</dim>
					<dim>3</dim>
				</port>
			</input>
			<output>
				<port id="2" precision="FP32">
					<dim>-1</dim>
					<dim>48</dim>
					<dim>52</dim>
					<dim>-1</dim>
				</port>
			</output>
		</layer>
		<layer id="117" name="Reshape_547" type="Const" version="opset1">
			<data element_type="f32" shape="1, 48, 1, 1" offset="556680" size="192" />
			<output>
				<port id="0" precision="FP32">
					<dim>1</dim>
					<dim>48</dim>
					<dim>1</dim>
					<dim>1</dim>
				</port>
			</output>
		</layer>
		<layer id="118" name="/backbone/stage2/stage2.1/blocks/blocks.2/conv2/conv/Conv" type="Add" version="opset1">
			<data auto_broadcast="numpy" />
			<input>
				<port id="0" precision="FP32">
					<dim>-1</dim>
					<dim>48</dim>
					<dim>52</dim>
					<dim>-1</dim>
				</port>
				<port id="1" precision="FP32">
					<dim>1</dim>
					<dim>48</dim>
					<dim>1</dim>
					<dim>1</dim>
				</port>
			</input>
			<output>
				<port id="2" precision="FP32" names="/backbone/stage2/stage2.1/blocks/blocks.2/conv2/conv/Conv_output_0">
					<dim>-1</dim>
					<dim>48</dim>
					<dim>52</dim>
					<dim>-1</dim>
				</port>
			</output>
		</layer>
		<layer id="119" name="/backbone/stage2/stage2.1/blocks/blocks.2/conv2/activate/Mul" type="Swish" version="opset4">
			<input>
				<port id="0" precision="FP32">
					<dim>-1</dim>
					<dim>48</dim>
					<dim>52</dim>
					<dim>-1</dim>
				</port>
			</input>
			<output>
				<port id="1" precision="FP32" names="/backbone/stage2/stage2.1/blocks/blocks.2/conv2/activate/Mul_output_0">
					<dim>-1</dim>
					<dim>48</dim>
					<dim>52</dim>
					<dim>-1</dim>
				</port>
			</output>
		</layer>
		<layer id="120" name="/backbone/stage2/stage2.1/blocks/blocks.2/Add" type="Add" version="opset1">
			<data auto_broadcast="numpy" />
			<input>
				<port id="0" precision="FP32">
					<dim>-1</dim>
					<dim>48</dim>
					<dim>52</dim>
					<dim>-1</dim>
				</port>
				<port id="1" precision="FP32">
					<dim>-1</dim>
					<dim>48</dim>
					<dim>52</dim>
					<dim>-1</dim>
				</port>
			</input>
			<output>
				<port id="2" precision="FP32" names="/backbone/stage2/stage2.1/blocks/blocks.2/Add_output_0">
					<dim>-1</dim>
					<dim>48</dim>
					<dim>52</dim>
					<dim>-1</dim>
				</port>
			</output>
		</layer>
		<layer id="121" name="onnx::Conv_1349" type="Const" version="opset1">
			<data element_type="f32" shape="48, 96, 1, 1" offset="556872" size="18432" />
			<output>
				<port id="0" precision="FP32" names="onnx::Conv_1349">
					<dim>48</dim>
					<dim>96</dim>
					<dim>1</dim>
					<dim>1</dim>
				</port>
			</output>
		</layer>
		<layer id="122" name="/backbone/stage2/stage2.1/short_conv/conv/Conv/WithoutBiases" type="Convolution" version="opset1">
			<data strides="1, 1" dilations="1, 1" pads_begin="0, 0" pads_end="0, 0" auto_pad="explicit" />
			<input>
				<port id="0" precision="FP32">
					<dim>-1</dim>
					<dim>96</dim>
					<dim>52</dim>
					<dim>-1</dim>
				</port>
				<port id="1" precision="FP32">
					<dim>48</dim>
					<dim>96</dim>
					<dim>1</dim>
					<dim>1</dim>
				</port>
			</input>
			<output>
				<port id="2" precision="FP32">
					<dim>-1</dim>
					<dim>48</dim>
					<dim>52</dim>
					<dim>-1</dim>
				</port>
			</output>
		</layer>
		<layer id="123" name="Reshape_426" type="Const" version="opset1">
			<data element_type="f32" shape="1, 48, 1, 1" offset="575304" size="192" />
			<output>
				<port id="0" precision="FP32">
					<dim>1</dim>
					<dim>48</dim>
					<dim>1</dim>
					<dim>1</dim>
				</port>
			</output>
		</layer>
		<layer id="124" name="/backbone/stage2/stage2.1/short_conv/conv/Conv" type="Add" version="opset1">
			<data auto_broadcast="numpy" />
			<input>
				<port id="0" precision="FP32">
					<dim>-1</dim>
					<dim>48</dim>
					<dim>52</dim>
					<dim>-1</dim>
				</port>
				<port id="1" precision="FP32">
					<dim>1</dim>
					<dim>48</dim>
					<dim>1</dim>
					<dim>1</dim>
				</port>
			</input>
			<output>
				<port id="2" precision="FP32" names="/backbone/stage2/stage2.1/short_conv/conv/Conv_output_0">
					<dim>-1</dim>
					<dim>48</dim>
					<dim>52</dim>
					<dim>-1</dim>
				</port>
			</output>
		</layer>
		<layer id="125" name="/backbone/stage2/stage2.1/short_conv/activate/Mul" type="Swish" version="opset4">
			<input>
				<port id="0" precision="FP32">
					<dim>-1</dim>
					<dim>48</dim>
					<dim>52</dim>
					<dim>-1</dim>
				</port>
			</input>
			<output>
				<port id="1" precision="FP32" names="/backbone/stage2/stage2.1/short_conv/activate/Mul_output_0">
					<dim>-1</dim>
					<dim>48</dim>
					<dim>52</dim>
					<dim>-1</dim>
				</port>
			</output>
		</layer>
		<layer id="126" name="/backbone/stage2/stage2.1/Concat" type="Concat" version="opset1">
			<data axis="1" />
			<input>
				<port id="0" precision="FP32">
					<dim>-1</dim>
					<dim>48</dim>
					<dim>52</dim>
					<dim>-1</dim>
				</port>
				<port id="1" precision="FP32">
					<dim>-1</dim>
					<dim>48</dim>
					<dim>52</dim>
					<dim>-1</dim>
				</port>
			</input>
			<output>
				<port id="2" precision="FP32" names="/backbone/stage2/stage2.1/Concat_output_0">
					<dim>-1</dim>
					<dim>96</dim>
					<dim>52</dim>
					<dim>-1</dim>
				</port>
			</output>
		</layer>
		<layer id="127" name="onnx::Conv_1373" type="Const" version="opset1">
			<data element_type="f32" shape="96, 96, 1, 1" offset="575496" size="36864" />
			<output>
				<port id="0" precision="FP32" names="onnx::Conv_1373">
					<dim>96</dim>
					<dim>96</dim>
					<dim>1</dim>
					<dim>1</dim>
				</port>
			</output>
		</layer>
		<layer id="128" name="/backbone/stage2/stage2.1/final_conv/conv/Conv/WithoutBiases" type="Convolution" version="opset1">
			<data strides="1, 1" dilations="1, 1" pads_begin="0, 0" pads_end="0, 0" auto_pad="explicit" />
			<input>
				<port id="0" precision="FP32">
					<dim>-1</dim>
					<dim>96</dim>
					<dim>52</dim>
					<dim>-1</dim>
				</port>
				<port id="1" precision="FP32">
					<dim>96</dim>
					<dim>96</dim>
					<dim>1</dim>
					<dim>1</dim>
				</port>
			</input>
			<output>
				<port id="2" precision="FP32">
					<dim>-1</dim>
					<dim>96</dim>
					<dim>52</dim>
					<dim>-1</dim>
				</port>
			</output>
		</layer>
		<layer id="129" name="Reshape_566" type="Const" version="opset1">
			<data element_type="f32" shape="1, 96, 1, 1" offset="612360" size="384" />
			<output>
				<port id="0" precision="FP32">
					<dim>1</dim>
					<dim>96</dim>
					<dim>1</dim>
					<dim>1</dim>
				</port>
			</output>
		</layer>
		<layer id="130" name="/backbone/stage2/stage2.1/final_conv/conv/Conv" type="Add" version="opset1">
			<data auto_broadcast="numpy" />
			<input>
				<port id="0" precision="FP32">
					<dim>-1</dim>
					<dim>96</dim>
					<dim>52</dim>
					<dim>-1</dim>
				</port>
				<port id="1" precision="FP32">
					<dim>1</dim>
					<dim>96</dim>
					<dim>1</dim>
					<dim>1</dim>
				</port>
			</input>
			<output>
				<port id="2" precision="FP32" names="/backbone/stage2/stage2.1/final_conv/conv/Conv_output_0">
					<dim>-1</dim>
					<dim>96</dim>
					<dim>52</dim>
					<dim>-1</dim>
				</port>
			</output>
		</layer>
		<layer id="131" name="/backbone/stage2/stage2.1/final_conv/activate/Mul" type="Swish" version="opset4">
			<input>
				<port id="0" precision="FP32">
					<dim>-1</dim>
					<dim>96</dim>
					<dim>52</dim>
					<dim>-1</dim>
				</port>
			</input>
			<output>
				<port id="1" precision="FP32" names="/backbone/stage2/stage2.1/final_conv/activate/Mul_output_0">
					<dim>-1</dim>
					<dim>96</dim>
					<dim>52</dim>
					<dim>-1</dim>
				</port>
			</output>
		</layer>
		<layer id="132" name="onnx::Conv_1376" type="Const" version="opset1">
			<data element_type="f32" shape="192, 96, 3, 3" offset="612744" size="663552" />
			<output>
				<port id="0" precision="FP32" names="onnx::Conv_1376">
					<dim>192</dim>
					<dim>96</dim>
					<dim>3</dim>
					<dim>3</dim>
				</port>
			</output>
		</layer>
		<layer id="133" name="/backbone/stage3/stage3.0/conv/Conv/WithoutBiases" type="Convolution" version="opset1">
			<data strides="2, 2" dilations="1, 1" pads_begin="1, 1" pads_end="1, 1" auto_pad="explicit" />
			<input>
				<port id="0" precision="FP32">
					<dim>-1</dim>
					<dim>96</dim>
					<dim>52</dim>
					<dim>-1</dim>
				</port>
				<port id="1" precision="FP32">
					<dim>192</dim>
					<dim>96</dim>
					<dim>3</dim>
					<dim>3</dim>
				</port>
			</input>
			<output>
				<port id="2" precision="FP32">
					<dim>-1</dim>
					<dim>192</dim>
					<dim>26</dim>
					<dim>-1</dim>
				</port>
			</output>
		</layer>
		<layer id="134" name="Reshape_583" type="Const" version="opset1">
			<data element_type="f32" shape="1, 192, 1, 1" offset="1276296" size="768" />
			<output>
				<port id="0" precision="FP32">
					<dim>1</dim>
					<dim>192</dim>
					<dim>1</dim>
					<dim>1</dim>
				</port>
			</output>
		</layer>
		<layer id="135" name="/backbone/stage3/stage3.0/conv/Conv" type="Add" version="opset1">
			<data auto_broadcast="numpy" />
			<input>
				<port id="0" precision="FP32">
					<dim>-1</dim>
					<dim>192</dim>
					<dim>26</dim>
					<dim>-1</dim>
				</port>
				<port id="1" precision="FP32">
					<dim>1</dim>
					<dim>192</dim>
					<dim>1</dim>
					<dim>1</dim>
				</port>
			</input>
			<output>
				<port id="2" precision="FP32" names="/backbone/stage3/stage3.0/conv/Conv_output_0">
					<dim>-1</dim>
					<dim>192</dim>
					<dim>26</dim>
					<dim>-1</dim>
				</port>
			</output>
		</layer>
		<layer id="136" name="/backbone/stage3/stage3.0/activate/Mul" type="Swish" version="opset4">
			<input>
				<port id="0" precision="FP32">
					<dim>-1</dim>
					<dim>192</dim>
					<dim>26</dim>
					<dim>-1</dim>
				</port>
			</input>
			<output>
				<port id="1" precision="FP32" names="/backbone/stage3/stage3.0/activate/Mul_output_0">
					<dim>-1</dim>
					<dim>192</dim>
					<dim>26</dim>
					<dim>-1</dim>
				</port>
			</output>
		</layer>
		<layer id="137" name="onnx::Conv_1382" type="Const" version="opset1">
			<data element_type="f32" shape="96, 192, 1, 1" offset="1277064" size="73728" />
			<output>
				<port id="0" precision="FP32" names="onnx::Conv_1382">
					<dim>96</dim>
					<dim>192</dim>
					<dim>1</dim>
					<dim>1</dim>
				</port>
			</output>
		</layer>
		<layer id="138" name="/backbone/stage3/stage3.1/main_conv/conv/Conv/WithoutBiases" type="Convolution" version="opset1">
			<data strides="1, 1" dilations="1, 1" pads_begin="0, 0" pads_end="0, 0" auto_pad="explicit" />
			<input>
				<port id="0" precision="FP32">
					<dim>-1</dim>
					<dim>192</dim>
					<dim>26</dim>
					<dim>-1</dim>
				</port>
				<port id="1" precision="FP32">
					<dim>96</dim>
					<dim>192</dim>
					<dim>1</dim>
					<dim>1</dim>
				</port>
			</input>
			<output>
				<port id="2" precision="FP32">
					<dim>-1</dim>
					<dim>96</dim>
					<dim>26</dim>
					<dim>-1</dim>
				</port>
			</output>
		</layer>
		<layer id="139" name="Reshape_617" type="Const" version="opset1">
			<data element_type="f32" shape="1, 96, 1, 1" offset="1350792" size="384" />
			<output>
				<port id="0" precision="FP32">
					<dim>1</dim>
					<dim>96</dim>
					<dim>1</dim>
					<dim>1</dim>
				</port>
			</output>
		</layer>
		<layer id="140" name="/backbone/stage3/stage3.1/main_conv/conv/Conv" type="Add" version="opset1">
			<data auto_broadcast="numpy" />
			<input>
				<port id="0" precision="FP32">
					<dim>-1</dim>
					<dim>96</dim>
					<dim>26</dim>
					<dim>-1</dim>
				</port>
				<port id="1" precision="FP32">
					<dim>1</dim>
					<dim>96</dim>
					<dim>1</dim>
					<dim>1</dim>
				</port>
			</input>
			<output>
				<port id="2" precision="FP32" names="/backbone/stage3/stage3.1/main_conv/conv/Conv_output_0">
					<dim>-1</dim>
					<dim>96</dim>
					<dim>26</dim>
					<dim>-1</dim>
				</port>
			</output>
		</layer>
		<layer id="141" name="/backbone/stage3/stage3.1/main_conv/activate/Mul" type="Swish" version="opset4">
			<input>
				<port id="0" precision="FP32">
					<dim>-1</dim>
					<dim>96</dim>
					<dim>26</dim>
					<dim>-1</dim>
				</port>
			</input>
			<output>
				<port id="1" precision="FP32" names="/backbone/stage3/stage3.1/main_conv/activate/Mul_output_0">
					<dim>-1</dim>
					<dim>96</dim>
					<dim>26</dim>
					<dim>-1</dim>
				</port>
			</output>
		</layer>
		<layer id="142" name="onnx::Conv_1385" type="Const" version="opset1">
			<data element_type="f32" shape="96, 96, 1, 1" offset="1351176" size="36864" />
			<output>
				<port id="0" precision="FP32" names="onnx::Conv_1385">
					<dim>96</dim>
					<dim>96</dim>
					<dim>1</dim>
					<dim>1</dim>
				</port>
			</output>
		</layer>
		<layer id="143" name="/backbone/stage3/stage3.1/blocks/blocks.0/conv1/conv/Conv/WithoutBiases" type="Convolution" version="opset1">
			<data strides="1, 1" dilations="1, 1" pads_begin="0, 0" pads_end="0, 0" auto_pad="explicit" />
			<input>
				<port id="0" precision="FP32">
					<dim>-1</dim>
					<dim>96</dim>
					<dim>26</dim>
					<dim>-1</dim>
				</port>
				<port id="1" precision="FP32">
					<dim>96</dim>
					<dim>96</dim>
					<dim>1</dim>
					<dim>1</dim>
				</port>
			</input>
			<output>
				<port id="2" precision="FP32">
					<dim>-1</dim>
					<dim>96</dim>
					<dim>26</dim>
					<dim>-1</dim>
				</port>
			</output>
		</layer>
		<layer id="144" name="Reshape_634" type="Const" version="opset1">
			<data element_type="f32" shape="1, 96, 1, 1" offset="1388040" size="384" />
			<output>
				<port id="0" precision="FP32">
					<dim>1</dim>
					<dim>96</dim>
					<dim>1</dim>
					<dim>1</dim>
				</port>
			</output>
		</layer>
		<layer id="145" name="/backbone/stage3/stage3.1/blocks/blocks.0/conv1/conv/Conv" type="Add" version="opset1">
			<data auto_broadcast="numpy" />
			<input>
				<port id="0" precision="FP32">
					<dim>-1</dim>
					<dim>96</dim>
					<dim>26</dim>
					<dim>-1</dim>
				</port>
				<port id="1" precision="FP32">
					<dim>1</dim>
					<dim>96</dim>
					<dim>1</dim>
					<dim>1</dim>
				</port>
			</input>
			<output>
				<port id="2" precision="FP32" names="/backbone/stage3/stage3.1/blocks/blocks.0/conv1/conv/Conv_output_0">
					<dim>-1</dim>
					<dim>96</dim>
					<dim>26</dim>
					<dim>-1</dim>
				</port>
			</output>
		</layer>
		<layer id="146" name="/backbone/stage3/stage3.1/blocks/blocks.0/conv1/activate/Mul" type="Swish" version="opset4">
			<input>
				<port id="0" precision="FP32">
					<dim>-1</dim>
					<dim>96</dim>
					<dim>26</dim>
					<dim>-1</dim>
				</port>
			</input>
			<output>
				<port id="1" precision="FP32" names="/backbone/stage3/stage3.1/blocks/blocks.0/conv1/activate/Mul_output_0">
					<dim>-1</dim>
					<dim>96</dim>
					<dim>26</dim>
					<dim>-1</dim>
				</port>
			</output>
		</layer>
		<layer id="147" name="onnx::Conv_1388" type="Const" version="opset1">
			<data element_type="f32" shape="96, 96, 3, 3" offset="1388424" size="331776" />
			<output>
				<port id="0" precision="FP32" names="onnx::Conv_1388">
					<dim>96</dim>
					<dim>96</dim>
					<dim>3</dim>
					<dim>3</dim>
				</port>
			</output>
		</layer>
		<layer id="148" name="/backbone/stage3/stage3.1/blocks/blocks.0/conv2/conv/Conv/WithoutBiases" type="Convolution" version="opset1">
			<data strides="1, 1" dilations="1, 1" pads_begin="1, 1" pads_end="1, 1" auto_pad="explicit" />
			<input>
				<port id="0" precision="FP32">
					<dim>-1</dim>
					<dim>96</dim>
					<dim>26</dim>
					<dim>-1</dim>
				</port>
				<port id="1" precision="FP32">
					<dim>96</dim>
					<dim>96</dim>
					<dim>3</dim>
					<dim>3</dim>
				</port>
			</input>
			<output>
				<port id="2" precision="FP32">
					<dim>-1</dim>
					<dim>96</dim>
					<dim>26</dim>
					<dim>-1</dim>
				</port>
			</output>
		</layer>
		<layer id="149" name="Reshape_651" type="Const" version="opset1">
			<data element_type="f32" shape="1, 96, 1, 1" offset="1720200" size="384" />
			<output>
				<port id="0" precision="FP32">
					<dim>1</dim>
					<dim>96</dim>
					<dim>1</dim>
					<dim>1</dim>
				</port>
			</output>
		</layer>
		<layer id="150" name="/backbone/stage3/stage3.1/blocks/blocks.0/conv2/conv/Conv" type="Add" version="opset1">
			<data auto_broadcast="numpy" />
			<input>
				<port id="0" precision="FP32">
					<dim>-1</dim>
					<dim>96</dim>
					<dim>26</dim>
					<dim>-1</dim>
				</port>
				<port id="1" precision="FP32">
					<dim>1</dim>
					<dim>96</dim>
					<dim>1</dim>
					<dim>1</dim>
				</port>
			</input>
			<output>
				<port id="2" precision="FP32" names="/backbone/stage3/stage3.1/blocks/blocks.0/conv2/conv/Conv_output_0">
					<dim>-1</dim>
					<dim>96</dim>
					<dim>26</dim>
					<dim>-1</dim>
				</port>
			</output>
		</layer>
		<layer id="151" name="/backbone/stage3/stage3.1/blocks/blocks.0/conv2/activate/Mul" type="Swish" version="opset4">
			<input>
				<port id="0" precision="FP32">
					<dim>-1</dim>
					<dim>96</dim>
					<dim>26</dim>
					<dim>-1</dim>
				</port>
			</input>
			<output>
				<port id="1" precision="FP32" names="/backbone/stage3/stage3.1/blocks/blocks.0/conv2/activate/Mul_output_0">
					<dim>-1</dim>
					<dim>96</dim>
					<dim>26</dim>
					<dim>-1</dim>
				</port>
			</output>
		</layer>
		<layer id="152" name="/backbone/stage3/stage3.1/blocks/blocks.0/Add" type="Add" version="opset1">
			<data auto_broadcast="numpy" />
			<input>
				<port id="0" precision="FP32">
					<dim>-1</dim>
					<dim>96</dim>
					<dim>26</dim>
					<dim>-1</dim>
				</port>
				<port id="1" precision="FP32">
					<dim>-1</dim>
					<dim>96</dim>
					<dim>26</dim>
					<dim>-1</dim>
				</port>
			</input>
			<output>
				<port id="2" precision="FP32" names="/backbone/stage3/stage3.1/blocks/blocks.0/Add_output_0">
					<dim>-1</dim>
					<dim>96</dim>
					<dim>26</dim>
					<dim>-1</dim>
				</port>
			</output>
		</layer>
		<layer id="153" name="onnx::Conv_1391" type="Const" version="opset1">
			<data element_type="f32" shape="96, 96, 1, 1" offset="1720584" size="36864" />
			<output>
				<port id="0" precision="FP32" names="onnx::Conv_1391">
					<dim>96</dim>
					<dim>96</dim>
					<dim>1</dim>
					<dim>1</dim>
				</port>
			</output>
		</layer>
		<layer id="154" name="/backbone/stage3/stage3.1/blocks/blocks.1/conv1/conv/Conv/WithoutBiases" type="Convolution" version="opset1">
			<data strides="1, 1" dilations="1, 1" pads_begin="0, 0" pads_end="0, 0" auto_pad="explicit" />
			<input>
				<port id="0" precision="FP32">
					<dim>-1</dim>
					<dim>96</dim>
					<dim>26</dim>
					<dim>-1</dim>
				</port>
				<port id="1" precision="FP32">
					<dim>96</dim>
					<dim>96</dim>
					<dim>1</dim>
					<dim>1</dim>
				</port>
			</input>
			<output>
				<port id="2" precision="FP32">
					<dim>-1</dim>
					<dim>96</dim>
					<dim>26</dim>
					<dim>-1</dim>
				</port>
			</output>
		</layer>
		<layer id="155" name="Reshape_669" type="Const" version="opset1">
			<data element_type="f32" shape="1, 96, 1, 1" offset="1757448" size="384" />
			<output>
				<port id="0" precision="FP32">
					<dim>1</dim>
					<dim>96</dim>
					<dim>1</dim>
					<dim>1</dim>
				</port>
			</output>
		</layer>
		<layer id="156" name="/backbone/stage3/stage3.1/blocks/blocks.1/conv1/conv/Conv" type="Add" version="opset1">
			<data auto_broadcast="numpy" />
			<input>
				<port id="0" precision="FP32">
					<dim>-1</dim>
					<dim>96</dim>
					<dim>26</dim>
					<dim>-1</dim>
				</port>
				<port id="1" precision="FP32">
					<dim>1</dim>
					<dim>96</dim>
					<dim>1</dim>
					<dim>1</dim>
				</port>
			</input>
			<output>
				<port id="2" precision="FP32" names="/backbone/stage3/stage3.1/blocks/blocks.1/conv1/conv/Conv_output_0">
					<dim>-1</dim>
					<dim>96</dim>
					<dim>26</dim>
					<dim>-1</dim>
				</port>
			</output>
		</layer>
		<layer id="157" name="/backbone/stage3/stage3.1/blocks/blocks.1/conv1/activate/Mul" type="Swish" version="opset4">
			<input>
				<port id="0" precision="FP32">
					<dim>-1</dim>
					<dim>96</dim>
					<dim>26</dim>
					<dim>-1</dim>
				</port>
			</input>
			<output>
				<port id="1" precision="FP32" names="/backbone/stage3/stage3.1/blocks/blocks.1/conv1/activate/Mul_output_0">
					<dim>-1</dim>
					<dim>96</dim>
					<dim>26</dim>
					<dim>-1</dim>
				</port>
			</output>
		</layer>
		<layer id="158" name="onnx::Conv_1394" type="Const" version="opset1">
			<data element_type="f32" shape="96, 96, 3, 3" offset="1757832" size="331776" />
			<output>
				<port id="0" precision="FP32" names="onnx::Conv_1394">
					<dim>96</dim>
					<dim>96</dim>
					<dim>3</dim>
					<dim>3</dim>
				</port>
			</output>
		</layer>
		<layer id="159" name="/backbone/stage3/stage3.1/blocks/blocks.1/conv2/conv/Conv/WithoutBiases" type="Convolution" version="opset1">
			<data strides="1, 1" dilations="1, 1" pads_begin="1, 1" pads_end="1, 1" auto_pad="explicit" />
			<input>
				<port id="0" precision="FP32">
					<dim>-1</dim>
					<dim>96</dim>
					<dim>26</dim>
					<dim>-1</dim>
				</port>
				<port id="1" precision="FP32">
					<dim>96</dim>
					<dim>96</dim>
					<dim>3</dim>
					<dim>3</dim>
				</port>
			</input>
			<output>
				<port id="2" precision="FP32">
					<dim>-1</dim>
					<dim>96</dim>
					<dim>26</dim>
					<dim>-1</dim>
				</port>
			</output>
		</layer>
		<layer id="160" name="Reshape_686" type="Const" version="opset1">
			<data element_type="f32" shape="1, 96, 1, 1" offset="2089608" size="384" />
			<output>
				<port id="0" precision="FP32">
					<dim>1</dim>
					<dim>96</dim>
					<dim>1</dim>
					<dim>1</dim>
				</port>
			</output>
		</layer>
		<layer id="161" name="/backbone/stage3/stage3.1/blocks/blocks.1/conv2/conv/Conv" type="Add" version="opset1">
			<data auto_broadcast="numpy" />
			<input>
				<port id="0" precision="FP32">
					<dim>-1</dim>
					<dim>96</dim>
					<dim>26</dim>
					<dim>-1</dim>
				</port>
				<port id="1" precision="FP32">
					<dim>1</dim>
					<dim>96</dim>
					<dim>1</dim>
					<dim>1</dim>
				</port>
			</input>
			<output>
				<port id="2" precision="FP32" names="/backbone/stage3/stage3.1/blocks/blocks.1/conv2/conv/Conv_output_0">
					<dim>-1</dim>
					<dim>96</dim>
					<dim>26</dim>
					<dim>-1</dim>
				</port>
			</output>
		</layer>
		<layer id="162" name="/backbone/stage3/stage3.1/blocks/blocks.1/conv2/activate/Mul" type="Swish" version="opset4">
			<input>
				<port id="0" precision="FP32">
					<dim>-1</dim>
					<dim>96</dim>
					<dim>26</dim>
					<dim>-1</dim>
				</port>
			</input>
			<output>
				<port id="1" precision="FP32" names="/backbone/stage3/stage3.1/blocks/blocks.1/conv2/activate/Mul_output_0">
					<dim>-1</dim>
					<dim>96</dim>
					<dim>26</dim>
					<dim>-1</dim>
				</port>
			</output>
		</layer>
		<layer id="163" name="/backbone/stage3/stage3.1/blocks/blocks.1/Add" type="Add" version="opset1">
			<data auto_broadcast="numpy" />
			<input>
				<port id="0" precision="FP32">
					<dim>-1</dim>
					<dim>96</dim>
					<dim>26</dim>
					<dim>-1</dim>
				</port>
				<port id="1" precision="FP32">
					<dim>-1</dim>
					<dim>96</dim>
					<dim>26</dim>
					<dim>-1</dim>
				</port>
			</input>
			<output>
				<port id="2" precision="FP32" names="/backbone/stage3/stage3.1/blocks/blocks.1/Add_output_0">
					<dim>-1</dim>
					<dim>96</dim>
					<dim>26</dim>
					<dim>-1</dim>
				</port>
			</output>
		</layer>
		<layer id="164" name="onnx::Conv_1397" type="Const" version="opset1">
			<data element_type="f32" shape="96, 96, 1, 1" offset="2089992" size="36864" />
			<output>
				<port id="0" precision="FP32" names="onnx::Conv_1397">
					<dim>96</dim>
					<dim>96</dim>
					<dim>1</dim>
					<dim>1</dim>
				</port>
			</output>
		</layer>
		<layer id="165" name="/backbone/stage3/stage3.1/blocks/blocks.2/conv1/conv/Conv/WithoutBiases" type="Convolution" version="opset1">
			<data strides="1, 1" dilations="1, 1" pads_begin="0, 0" pads_end="0, 0" auto_pad="explicit" />
			<input>
				<port id="0" precision="FP32">
					<dim>-1</dim>
					<dim>96</dim>
					<dim>26</dim>
					<dim>-1</dim>
				</port>
				<port id="1" precision="FP32">
					<dim>96</dim>
					<dim>96</dim>
					<dim>1</dim>
					<dim>1</dim>
				</port>
			</input>
			<output>
				<port id="2" precision="FP32">
					<dim>-1</dim>
					<dim>96</dim>
					<dim>26</dim>
					<dim>-1</dim>
				</port>
			</output>
		</layer>
		<layer id="166" name="Reshape_704" type="Const" version="opset1">
			<data element_type="f32" shape="1, 96, 1, 1" offset="2126856" size="384" />
			<output>
				<port id="0" precision="FP32">
					<dim>1</dim>
					<dim>96</dim>
					<dim>1</dim>
					<dim>1</dim>
				</port>
			</output>
		</layer>
		<layer id="167" name="/backbone/stage3/stage3.1/blocks/blocks.2/conv1/conv/Conv" type="Add" version="opset1">
			<data auto_broadcast="numpy" />
			<input>
				<port id="0" precision="FP32">
					<dim>-1</dim>
					<dim>96</dim>
					<dim>26</dim>
					<dim>-1</dim>
				</port>
				<port id="1" precision="FP32">
					<dim>1</dim>
					<dim>96</dim>
					<dim>1</dim>
					<dim>1</dim>
				</port>
			</input>
			<output>
				<port id="2" precision="FP32" names="/backbone/stage3/stage3.1/blocks/blocks.2/conv1/conv/Conv_output_0">
					<dim>-1</dim>
					<dim>96</dim>
					<dim>26</dim>
					<dim>-1</dim>
				</port>
			</output>
		</layer>
		<layer id="168" name="/backbone/stage3/stage3.1/blocks/blocks.2/conv1/activate/Mul" type="Swish" version="opset4">
			<input>
				<port id="0" precision="FP32">
					<dim>-1</dim>
					<dim>96</dim>
					<dim>26</dim>
					<dim>-1</dim>
				</port>
			</input>
			<output>
				<port id="1" precision="FP32" names="/backbone/stage3/stage3.1/blocks/blocks.2/conv1/activate/Mul_output_0">
					<dim>-1</dim>
					<dim>96</dim>
					<dim>26</dim>
					<dim>-1</dim>
				</port>
			</output>
		</layer>
		<layer id="169" name="onnx::Conv_1400" type="Const" version="opset1">
			<data element_type="f32" shape="96, 96, 3, 3" offset="2127240" size="331776" />
			<output>
				<port id="0" precision="FP32" names="onnx::Conv_1400">
					<dim>96</dim>
					<dim>96</dim>
					<dim>3</dim>
					<dim>3</dim>
				</port>
			</output>
		</layer>
		<layer id="170" name="/backbone/stage3/stage3.1/blocks/blocks.2/conv2/conv/Conv/WithoutBiases" type="Convolution" version="opset1">
			<data strides="1, 1" dilations="1, 1" pads_begin="1, 1" pads_end="1, 1" auto_pad="explicit" />
			<input>
				<port id="0" precision="FP32">
					<dim>-1</dim>
					<dim>96</dim>
					<dim>26</dim>
					<dim>-1</dim>
				</port>
				<port id="1" precision="FP32">
					<dim>96</dim>
					<dim>96</dim>
					<dim>3</dim>
					<dim>3</dim>
				</port>
			</input>
			<output>
				<port id="2" precision="FP32">
					<dim>-1</dim>
					<dim>96</dim>
					<dim>26</dim>
					<dim>-1</dim>
				</port>
			</output>
		</layer>
		<layer id="171" name="Reshape_721" type="Const" version="opset1">
			<data element_type="f32" shape="1, 96, 1, 1" offset="2459016" size="384" />
			<output>
				<port id="0" precision="FP32">
					<dim>1</dim>
					<dim>96</dim>
					<dim>1</dim>
					<dim>1</dim>
				</port>
			</output>
		</layer>
		<layer id="172" name="/backbone/stage3/stage3.1/blocks/blocks.2/conv2/conv/Conv" type="Add" version="opset1">
			<data auto_broadcast="numpy" />
			<input>
				<port id="0" precision="FP32">
					<dim>-1</dim>
					<dim>96</dim>
					<dim>26</dim>
					<dim>-1</dim>
				</port>
				<port id="1" precision="FP32">
					<dim>1</dim>
					<dim>96</dim>
					<dim>1</dim>
					<dim>1</dim>
				</port>
			</input>
			<output>
				<port id="2" precision="FP32" names="/backbone/stage3/stage3.1/blocks/blocks.2/conv2/conv/Conv_output_0">
					<dim>-1</dim>
					<dim>96</dim>
					<dim>26</dim>
					<dim>-1</dim>
				</port>
			</output>
		</layer>
		<layer id="173" name="/backbone/stage3/stage3.1/blocks/blocks.2/conv2/activate/Mul" type="Swish" version="opset4">
			<input>
				<port id="0" precision="FP32">
					<dim>-1</dim>
					<dim>96</dim>
					<dim>26</dim>
					<dim>-1</dim>
				</port>
			</input>
			<output>
				<port id="1" precision="FP32" names="/backbone/stage3/stage3.1/blocks/blocks.2/conv2/activate/Mul_output_0">
					<dim>-1</dim>
					<dim>96</dim>
					<dim>26</dim>
					<dim>-1</dim>
				</port>
			</output>
		</layer>
		<layer id="174" name="/backbone/stage3/stage3.1/blocks/blocks.2/Add" type="Add" version="opset1">
			<data auto_broadcast="numpy" />
			<input>
				<port id="0" precision="FP32">
					<dim>-1</dim>
					<dim>96</dim>
					<dim>26</dim>
					<dim>-1</dim>
				</port>
				<port id="1" precision="FP32">
					<dim>-1</dim>
					<dim>96</dim>
					<dim>26</dim>
					<dim>-1</dim>
				</port>
			</input>
			<output>
				<port id="2" precision="FP32" names="/backbone/stage3/stage3.1/blocks/blocks.2/Add_output_0">
					<dim>-1</dim>
					<dim>96</dim>
					<dim>26</dim>
					<dim>-1</dim>
				</port>
			</output>
		</layer>
		<layer id="175" name="onnx::Conv_1379" type="Const" version="opset1">
			<data element_type="f32" shape="96, 192, 1, 1" offset="2459400" size="73728" />
			<output>
				<port id="0" precision="FP32" names="onnx::Conv_1379">
					<dim>96</dim>
					<dim>192</dim>
					<dim>1</dim>
					<dim>1</dim>
				</port>
			</output>
		</layer>
		<layer id="176" name="/backbone/stage3/stage3.1/short_conv/conv/Conv/WithoutBiases" type="Convolution" version="opset1">
			<data strides="1, 1" dilations="1, 1" pads_begin="0, 0" pads_end="0, 0" auto_pad="explicit" />
			<input>
				<port id="0" precision="FP32">
					<dim>-1</dim>
					<dim>192</dim>
					<dim>26</dim>
					<dim>-1</dim>
				</port>
				<port id="1" precision="FP32">
					<dim>96</dim>
					<dim>192</dim>
					<dim>1</dim>
					<dim>1</dim>
				</port>
			</input>
			<output>
				<port id="2" precision="FP32">
					<dim>-1</dim>
					<dim>96</dim>
					<dim>26</dim>
					<dim>-1</dim>
				</port>
			</output>
		</layer>
		<layer id="177" name="Reshape_600" type="Const" version="opset1">
			<data element_type="f32" shape="1, 96, 1, 1" offset="2533128" size="384" />
			<output>
				<port id="0" precision="FP32">
					<dim>1</dim>
					<dim>96</dim>
					<dim>1</dim>
					<dim>1</dim>
				</port>
			</output>
		</layer>
		<layer id="178" name="/backbone/stage3/stage3.1/short_conv/conv/Conv" type="Add" version="opset1">
			<data auto_broadcast="numpy" />
			<input>
				<port id="0" precision="FP32">
					<dim>-1</dim>
					<dim>96</dim>
					<dim>26</dim>
					<dim>-1</dim>
				</port>
				<port id="1" precision="FP32">
					<dim>1</dim>
					<dim>96</dim>
					<dim>1</dim>
					<dim>1</dim>
				</port>
			</input>
			<output>
				<port id="2" precision="FP32" names="/backbone/stage3/stage3.1/short_conv/conv/Conv_output_0">
					<dim>-1</dim>
					<dim>96</dim>
					<dim>26</dim>
					<dim>-1</dim>
				</port>
			</output>
		</layer>
		<layer id="179" name="/backbone/stage3/stage3.1/short_conv/activate/Mul" type="Swish" version="opset4">
			<input>
				<port id="0" precision="FP32">
					<dim>-1</dim>
					<dim>96</dim>
					<dim>26</dim>
					<dim>-1</dim>
				</port>
			</input>
			<output>
				<port id="1" precision="FP32" names="/backbone/stage3/stage3.1/short_conv/activate/Mul_output_0">
					<dim>-1</dim>
					<dim>96</dim>
					<dim>26</dim>
					<dim>-1</dim>
				</port>
			</output>
		</layer>
		<layer id="180" name="/backbone/stage3/stage3.1/Concat" type="Concat" version="opset1">
			<data axis="1" />
			<input>
				<port id="0" precision="FP32">
					<dim>-1</dim>
					<dim>96</dim>
					<dim>26</dim>
					<dim>-1</dim>
				</port>
				<port id="1" precision="FP32">
					<dim>-1</dim>
					<dim>96</dim>
					<dim>26</dim>
					<dim>-1</dim>
				</port>
			</input>
			<output>
				<port id="2" precision="FP32" names="/backbone/stage3/stage3.1/Concat_output_0">
					<dim>-1</dim>
					<dim>192</dim>
					<dim>26</dim>
					<dim>-1</dim>
				</port>
			</output>
		</layer>
		<layer id="181" name="onnx::Conv_1403" type="Const" version="opset1">
			<data element_type="f32" shape="192, 192, 1, 1" offset="2533512" size="147456" />
			<output>
				<port id="0" precision="FP32" names="onnx::Conv_1403">
					<dim>192</dim>
					<dim>192</dim>
					<dim>1</dim>
					<dim>1</dim>
				</port>
			</output>
		</layer>
		<layer id="182" name="/backbone/stage3/stage3.1/final_conv/conv/Conv/WithoutBiases" type="Convolution" version="opset1">
			<data strides="1, 1" dilations="1, 1" pads_begin="0, 0" pads_end="0, 0" auto_pad="explicit" />
			<input>
				<port id="0" precision="FP32">
					<dim>-1</dim>
					<dim>192</dim>
					<dim>26</dim>
					<dim>-1</dim>
				</port>
				<port id="1" precision="FP32">
					<dim>192</dim>
					<dim>192</dim>
					<dim>1</dim>
					<dim>1</dim>
				</port>
			</input>
			<output>
				<port id="2" precision="FP32">
					<dim>-1</dim>
					<dim>192</dim>
					<dim>26</dim>
					<dim>-1</dim>
				</port>
			</output>
		</layer>
		<layer id="183" name="Reshape_740" type="Const" version="opset1">
			<data element_type="f32" shape="1, 192, 1, 1" offset="2680968" size="768" />
			<output>
				<port id="0" precision="FP32">
					<dim>1</dim>
					<dim>192</dim>
					<dim>1</dim>
					<dim>1</dim>
				</port>
			</output>
		</layer>
		<layer id="184" name="/backbone/stage3/stage3.1/final_conv/conv/Conv" type="Add" version="opset1">
			<data auto_broadcast="numpy" />
			<input>
				<port id="0" precision="FP32">
					<dim>-1</dim>
					<dim>192</dim>
					<dim>26</dim>
					<dim>-1</dim>
				</port>
				<port id="1" precision="FP32">
					<dim>1</dim>
					<dim>192</dim>
					<dim>1</dim>
					<dim>1</dim>
				</port>
			</input>
			<output>
				<port id="2" precision="FP32" names="/backbone/stage3/stage3.1/final_conv/conv/Conv_output_0">
					<dim>-1</dim>
					<dim>192</dim>
					<dim>26</dim>
					<dim>-1</dim>
				</port>
			</output>
		</layer>
		<layer id="185" name="/backbone/stage3/stage3.1/final_conv/activate/Mul" type="Swish" version="opset4">
			<input>
				<port id="0" precision="FP32">
					<dim>-1</dim>
					<dim>192</dim>
					<dim>26</dim>
					<dim>-1</dim>
				</port>
			</input>
			<output>
				<port id="1" precision="FP32" names="/backbone/stage3/stage3.1/final_conv/activate/Mul_output_0">
					<dim>-1</dim>
					<dim>192</dim>
					<dim>26</dim>
					<dim>-1</dim>
				</port>
			</output>
		</layer>
		<layer id="186" name="onnx::Conv_1406" type="Const" version="opset1">
			<data element_type="f32" shape="384, 192, 3, 3" offset="2681736" size="2654208" />
			<output>
				<port id="0" precision="FP32" names="onnx::Conv_1406">
					<dim>384</dim>
					<dim>192</dim>
					<dim>3</dim>
					<dim>3</dim>
				</port>
			</output>
		</layer>
		<layer id="187" name="/backbone/stage4/stage4.0/conv/Conv/WithoutBiases" type="Convolution" version="opset1">
			<data strides="2, 2" dilations="1, 1" pads_begin="1, 1" pads_end="1, 1" auto_pad="explicit" />
			<input>
				<port id="0" precision="FP32">
					<dim>-1</dim>
					<dim>192</dim>
					<dim>26</dim>
					<dim>-1</dim>
				</port>
				<port id="1" precision="FP32">
					<dim>384</dim>
					<dim>192</dim>
					<dim>3</dim>
					<dim>3</dim>
				</port>
			</input>
			<output>
				<port id="2" precision="FP32">
					<dim>-1</dim>
					<dim>384</dim>
					<dim>13</dim>
					<dim>-1</dim>
				</port>
			</output>
		</layer>
		<layer id="188" name="Reshape_757" type="Const" version="opset1">
			<data element_type="f32" shape="1, 384, 1, 1" offset="5335944" size="1536" />
			<output>
				<port id="0" precision="FP32">
					<dim>1</dim>
					<dim>384</dim>
					<dim>1</dim>
					<dim>1</dim>
				</port>
			</output>
		</layer>
		<layer id="189" name="/backbone/stage4/stage4.0/conv/Conv" type="Add" version="opset1">
			<data auto_broadcast="numpy" />
			<input>
				<port id="0" precision="FP32">
					<dim>-1</dim>
					<dim>384</dim>
					<dim>13</dim>
					<dim>-1</dim>
				</port>
				<port id="1" precision="FP32">
					<dim>1</dim>
					<dim>384</dim>
					<dim>1</dim>
					<dim>1</dim>
				</port>
			</input>
			<output>
				<port id="2" precision="FP32" names="/backbone/stage4/stage4.0/conv/Conv_output_0">
					<dim>-1</dim>
					<dim>384</dim>
					<dim>13</dim>
					<dim>-1</dim>
				</port>
			</output>
		</layer>
		<layer id="190" name="/backbone/stage4/stage4.0/activate/Mul" type="Swish" version="opset4">
			<input>
				<port id="0" precision="FP32">
					<dim>-1</dim>
					<dim>384</dim>
					<dim>13</dim>
					<dim>-1</dim>
				</port>
			</input>
			<output>
				<port id="1" precision="FP32" names="/backbone/stage4/stage4.0/activate/Mul_output_0">
					<dim>-1</dim>
					<dim>384</dim>
					<dim>13</dim>
					<dim>-1</dim>
				</port>
			</output>
		</layer>
		<layer id="191" name="onnx::Conv_1409" type="Const" version="opset1">
			<data element_type="f32" shape="192, 384, 1, 1" offset="5337480" size="294912" />
			<output>
				<port id="0" precision="FP32" names="onnx::Conv_1409">
					<dim>192</dim>
					<dim>384</dim>
					<dim>1</dim>
					<dim>1</dim>
				</port>
			</output>
		</layer>
		<layer id="192" name="/backbone/stage4/stage4.1/conv1/conv/Conv/WithoutBiases" type="Convolution" version="opset1">
			<data strides="1, 1" dilations="1, 1" pads_begin="0, 0" pads_end="0, 0" auto_pad="explicit" />
			<input>
				<port id="0" precision="FP32">
					<dim>-1</dim>
					<dim>384</dim>
					<dim>13</dim>
					<dim>-1</dim>
				</port>
				<port id="1" precision="FP32">
					<dim>192</dim>
					<dim>384</dim>
					<dim>1</dim>
					<dim>1</dim>
				</port>
			</input>
			<output>
				<port id="2" precision="FP32">
					<dim>-1</dim>
					<dim>192</dim>
					<dim>13</dim>
					<dim>-1</dim>
				</port>
			</output>
		</layer>
		<layer id="193" name="Reshape_774" type="Const" version="opset1">
			<data element_type="f32" shape="1, 192, 1, 1" offset="5632392" size="768" />
			<output>
				<port id="0" precision="FP32">
					<dim>1</dim>
					<dim>192</dim>
					<dim>1</dim>
					<dim>1</dim>
				</port>
			</output>
		</layer>
		<layer id="194" name="/backbone/stage4/stage4.1/conv1/conv/Conv" type="Add" version="opset1">
			<data auto_broadcast="numpy" />
			<input>
				<port id="0" precision="FP32">
					<dim>-1</dim>
					<dim>192</dim>
					<dim>13</dim>
					<dim>-1</dim>
				</port>
				<port id="1" precision="FP32">
					<dim>1</dim>
					<dim>192</dim>
					<dim>1</dim>
					<dim>1</dim>
				</port>
			</input>
			<output>
				<port id="2" precision="FP32" names="/backbone/stage4/stage4.1/conv1/conv/Conv_output_0">
					<dim>-1</dim>
					<dim>192</dim>
					<dim>13</dim>
					<dim>-1</dim>
				</port>
			</output>
		</layer>
		<layer id="195" name="/backbone/stage4/stage4.1/conv1/activate/Mul" type="Swish" version="opset4">
			<input>
				<port id="0" precision="FP32">
					<dim>-1</dim>
					<dim>192</dim>
					<dim>13</dim>
					<dim>-1</dim>
				</port>
			</input>
			<output>
				<port id="1" precision="FP32" names="/backbone/stage4/stage4.1/conv1/activate/Mul_output_0">
					<dim>-1</dim>
					<dim>192</dim>
					<dim>13</dim>
					<dim>-1</dim>
				</port>
			</output>
		</layer>
		<layer id="196" name="/backbone/stage4/stage4.1/poolings.0/MaxPool" type="MaxPool" version="opset8">
			<data strides="1, 1" dilations="1, 1" pads_begin="2, 2" pads_end="2, 2" kernel="5, 5" rounding_type="floor" auto_pad="explicit" index_element_type="i64" axis="0" />
			<input>
				<port id="0" precision="FP32">
					<dim>-1</dim>
					<dim>192</dim>
					<dim>13</dim>
					<dim>-1</dim>
				</port>
			</input>
			<output>
				<port id="1" precision="FP32" names="/backbone/stage4/stage4.1/poolings.0/MaxPool_output_0">
					<dim>-1</dim>
					<dim>192</dim>
					<dim>13</dim>
					<dim>-1</dim>
				</port>
				<port id="2" precision="I64">
					<dim>-1</dim>
					<dim>192</dim>
					<dim>13</dim>
					<dim>-1</dim>
				</port>
			</output>
		</layer>
		<layer id="197" name="/backbone/stage4/stage4.1/poolings.1/MaxPool" type="MaxPool" version="opset8">
			<data strides="1, 1" dilations="1, 1" pads_begin="4, 4" pads_end="4, 4" kernel="9, 9" rounding_type="floor" auto_pad="explicit" index_element_type="i64" axis="0" />
			<input>
				<port id="0" precision="FP32">
					<dim>-1</dim>
					<dim>192</dim>
					<dim>13</dim>
					<dim>-1</dim>
				</port>
			</input>
			<output>
				<port id="1" precision="FP32" names="/backbone/stage4/stage4.1/poolings.1/MaxPool_output_0">
					<dim>-1</dim>
					<dim>192</dim>
					<dim>13</dim>
					<dim>-1</dim>
				</port>
				<port id="2" precision="I64">
					<dim>-1</dim>
					<dim>192</dim>
					<dim>13</dim>
					<dim>-1</dim>
				</port>
			</output>
		</layer>
		<layer id="198" name="/backbone/stage4/stage4.1/poolings.2/MaxPool" type="MaxPool" version="opset8">
			<data strides="1, 1" dilations="1, 1" pads_begin="6, 6" pads_end="6, 6" kernel="13, 13" rounding_type="floor" auto_pad="explicit" index_element_type="i64" axis="0" />
			<input>
				<port id="0" precision="FP32">
					<dim>-1</dim>
					<dim>192</dim>
					<dim>13</dim>
					<dim>-1</dim>
				</port>
			</input>
			<output>
				<port id="1" precision="FP32" names="/backbone/stage4/stage4.1/poolings.2/MaxPool_output_0">
					<dim>-1</dim>
					<dim>192</dim>
					<dim>13</dim>
					<dim>-1</dim>
				</port>
				<port id="2" precision="I64">
					<dim>-1</dim>
					<dim>192</dim>
					<dim>13</dim>
					<dim>-1</dim>
				</port>
			</output>
		</layer>
		<layer id="199" name="/backbone/stage4/stage4.1/Concat" type="Concat" version="opset1">
			<data axis="1" />
			<input>
				<port id="0" precision="FP32">
					<dim>-1</dim>
					<dim>192</dim>
					<dim>13</dim>
					<dim>-1</dim>
				</port>
				<port id="1" precision="FP32">
					<dim>-1</dim>
					<dim>192</dim>
					<dim>13</dim>
					<dim>-1</dim>
				</port>
				<port id="2" precision="FP32">
					<dim>-1</dim>
					<dim>192</dim>
					<dim>13</dim>
					<dim>-1</dim>
				</port>
				<port id="3" precision="FP32">
					<dim>-1</dim>
					<dim>192</dim>
					<dim>13</dim>
					<dim>-1</dim>
				</port>
			</input>
			<output>
				<port id="4" precision="FP32" names="/backbone/stage4/stage4.1/Concat_output_0">
					<dim>-1</dim>
					<dim>768</dim>
					<dim>13</dim>
					<dim>-1</dim>
				</port>
			</output>
		</layer>
		<layer id="200" name="onnx::Conv_1412" type="Const" version="opset1">
			<data element_type="f32" shape="384, 768, 1, 1" offset="5633160" size="1179648" />
			<output>
				<port id="0" precision="FP32" names="onnx::Conv_1412">
					<dim>384</dim>
					<dim>768</dim>
					<dim>1</dim>
					<dim>1</dim>
				</port>
			</output>
		</layer>
		<layer id="201" name="/backbone/stage4/stage4.1/conv2/conv/Conv/WithoutBiases" type="Convolution" version="opset1">
			<data strides="1, 1" dilations="1, 1" pads_begin="0, 0" pads_end="0, 0" auto_pad="explicit" />
			<input>
				<port id="0" precision="FP32">
					<dim>-1</dim>
					<dim>768</dim>
					<dim>13</dim>
					<dim>-1</dim>
				</port>
				<port id="1" precision="FP32">
					<dim>384</dim>
					<dim>768</dim>
					<dim>1</dim>
					<dim>1</dim>
				</port>
			</input>
			<output>
				<port id="2" precision="FP32">
					<dim>-1</dim>
					<dim>384</dim>
					<dim>13</dim>
					<dim>-1</dim>
				</port>
			</output>
		</layer>
		<layer id="202" name="Reshape_795" type="Const" version="opset1">
			<data element_type="f32" shape="1, 384, 1, 1" offset="6812808" size="1536" />
			<output>
				<port id="0" precision="FP32">
					<dim>1</dim>
					<dim>384</dim>
					<dim>1</dim>
					<dim>1</dim>
				</port>
			</output>
		</layer>
		<layer id="203" name="/backbone/stage4/stage4.1/conv2/conv/Conv" type="Add" version="opset1">
			<data auto_broadcast="numpy" />
			<input>
				<port id="0" precision="FP32">
					<dim>-1</dim>
					<dim>384</dim>
					<dim>13</dim>
					<dim>-1</dim>
				</port>
				<port id="1" precision="FP32">
					<dim>1</dim>
					<dim>384</dim>
					<dim>1</dim>
					<dim>1</dim>
				</port>
			</input>
			<output>
				<port id="2" precision="FP32" names="/backbone/stage4/stage4.1/conv2/conv/Conv_output_0">
					<dim>-1</dim>
					<dim>384</dim>
					<dim>13</dim>
					<dim>-1</dim>
				</port>
			</output>
		</layer>
		<layer id="204" name="/backbone/stage4/stage4.1/conv2/activate/Mul" type="Swish" version="opset4">
			<input>
				<port id="0" precision="FP32">
					<dim>-1</dim>
					<dim>384</dim>
					<dim>13</dim>
					<dim>-1</dim>
				</port>
			</input>
			<output>
				<port id="1" precision="FP32" names="/backbone/stage4/stage4.1/conv2/activate/Mul_output_0">
					<dim>-1</dim>
					<dim>384</dim>
					<dim>13</dim>
					<dim>-1</dim>
				</port>
			</output>
		</layer>
		<layer id="205" name="onnx::Conv_1418" type="Const" version="opset1">
			<data element_type="f32" shape="192, 384, 1, 1" offset="6814344" size="294912" />
			<output>
				<port id="0" precision="FP32" names="onnx::Conv_1418">
					<dim>192</dim>
					<dim>384</dim>
					<dim>1</dim>
					<dim>1</dim>
				</port>
			</output>
		</layer>
		<layer id="206" name="/backbone/stage4/stage4.2/main_conv/conv/Conv/WithoutBiases" type="Convolution" version="opset1">
			<data strides="1, 1" dilations="1, 1" pads_begin="0, 0" pads_end="0, 0" auto_pad="explicit" />
			<input>
				<port id="0" precision="FP32">
					<dim>-1</dim>
					<dim>384</dim>
					<dim>13</dim>
					<dim>-1</dim>
				</port>
				<port id="1" precision="FP32">
					<dim>192</dim>
					<dim>384</dim>
					<dim>1</dim>
					<dim>1</dim>
				</port>
			</input>
			<output>
				<port id="2" precision="FP32">
					<dim>-1</dim>
					<dim>192</dim>
					<dim>13</dim>
					<dim>-1</dim>
				</port>
			</output>
		</layer>
		<layer id="207" name="Reshape_829" type="Const" version="opset1">
			<data element_type="f32" shape="1, 192, 1, 1" offset="7109256" size="768" />
			<output>
				<port id="0" precision="FP32">
					<dim>1</dim>
					<dim>192</dim>
					<dim>1</dim>
					<dim>1</dim>
				</port>
			</output>
		</layer>
		<layer id="208" name="/backbone/stage4/stage4.2/main_conv/conv/Conv" type="Add" version="opset1">
			<data auto_broadcast="numpy" />
			<input>
				<port id="0" precision="FP32">
					<dim>-1</dim>
					<dim>192</dim>
					<dim>13</dim>
					<dim>-1</dim>
				</port>
				<port id="1" precision="FP32">
					<dim>1</dim>
					<dim>192</dim>
					<dim>1</dim>
					<dim>1</dim>
				</port>
			</input>
			<output>
				<port id="2" precision="FP32" names="/backbone/stage4/stage4.2/main_conv/conv/Conv_output_0">
					<dim>-1</dim>
					<dim>192</dim>
					<dim>13</dim>
					<dim>-1</dim>
				</port>
			</output>
		</layer>
		<layer id="209" name="/backbone/stage4/stage4.2/main_conv/activate/Mul" type="Swish" version="opset4">
			<input>
				<port id="0" precision="FP32">
					<dim>-1</dim>
					<dim>192</dim>
					<dim>13</dim>
					<dim>-1</dim>
				</port>
			</input>
			<output>
				<port id="1" precision="FP32" names="/backbone/stage4/stage4.2/main_conv/activate/Mul_output_0">
					<dim>-1</dim>
					<dim>192</dim>
					<dim>13</dim>
					<dim>-1</dim>
				</port>
			</output>
		</layer>
		<layer id="210" name="onnx::Conv_1421" type="Const" version="opset1">
			<data element_type="f32" shape="192, 192, 1, 1" offset="7110024" size="147456" />
			<output>
				<port id="0" precision="FP32" names="onnx::Conv_1421">
					<dim>192</dim>
					<dim>192</dim>
					<dim>1</dim>
					<dim>1</dim>
				</port>
			</output>
		</layer>
		<layer id="211" name="/backbone/stage4/stage4.2/blocks/blocks.0/conv1/conv/Conv/WithoutBiases" type="Convolution" version="opset1">
			<data strides="1, 1" dilations="1, 1" pads_begin="0, 0" pads_end="0, 0" auto_pad="explicit" />
			<input>
				<port id="0" precision="FP32">
					<dim>-1</dim>
					<dim>192</dim>
					<dim>13</dim>
					<dim>-1</dim>
				</port>
				<port id="1" precision="FP32">
					<dim>192</dim>
					<dim>192</dim>
					<dim>1</dim>
					<dim>1</dim>
				</port>
			</input>
			<output>
				<port id="2" precision="FP32">
					<dim>-1</dim>
					<dim>192</dim>
					<dim>13</dim>
					<dim>-1</dim>
				</port>
			</output>
		</layer>
		<layer id="212" name="Reshape_846" type="Const" version="opset1">
			<data element_type="f32" shape="1, 192, 1, 1" offset="7257480" size="768" />
			<output>
				<port id="0" precision="FP32">
					<dim>1</dim>
					<dim>192</dim>
					<dim>1</dim>
					<dim>1</dim>
				</port>
			</output>
		</layer>
		<layer id="213" name="/backbone/stage4/stage4.2/blocks/blocks.0/conv1/conv/Conv" type="Add" version="opset1">
			<data auto_broadcast="numpy" />
			<input>
				<port id="0" precision="FP32">
					<dim>-1</dim>
					<dim>192</dim>
					<dim>13</dim>
					<dim>-1</dim>
				</port>
				<port id="1" precision="FP32">
					<dim>1</dim>
					<dim>192</dim>
					<dim>1</dim>
					<dim>1</dim>
				</port>
			</input>
			<output>
				<port id="2" precision="FP32" names="/backbone/stage4/stage4.2/blocks/blocks.0/conv1/conv/Conv_output_0">
					<dim>-1</dim>
					<dim>192</dim>
					<dim>13</dim>
					<dim>-1</dim>
				</port>
			</output>
		</layer>
		<layer id="214" name="/backbone/stage4/stage4.2/blocks/blocks.0/conv1/activate/Mul" type="Swish" version="opset4">
			<input>
				<port id="0" precision="FP32">
					<dim>-1</dim>
					<dim>192</dim>
					<dim>13</dim>
					<dim>-1</dim>
				</port>
			</input>
			<output>
				<port id="1" precision="FP32" names="/backbone/stage4/stage4.2/blocks/blocks.0/conv1/activate/Mul_output_0">
					<dim>-1</dim>
					<dim>192</dim>
					<dim>13</dim>
					<dim>-1</dim>
				</port>
			</output>
		</layer>
		<layer id="215" name="onnx::Conv_1424" type="Const" version="opset1">
			<data element_type="f32" shape="192, 192, 3, 3" offset="7258248" size="1327104" />
			<output>
				<port id="0" precision="FP32" names="onnx::Conv_1424">
					<dim>192</dim>
					<dim>192</dim>
					<dim>3</dim>
					<dim>3</dim>
				</port>
			</output>
		</layer>
		<layer id="216" name="/backbone/stage4/stage4.2/blocks/blocks.0/conv2/conv/Conv/WithoutBiases" type="Convolution" version="opset1">
			<data strides="1, 1" dilations="1, 1" pads_begin="1, 1" pads_end="1, 1" auto_pad="explicit" />
			<input>
				<port id="0" precision="FP32">
					<dim>-1</dim>
					<dim>192</dim>
					<dim>13</dim>
					<dim>-1</dim>
				</port>
				<port id="1" precision="FP32">
					<dim>192</dim>
					<dim>192</dim>
					<dim>3</dim>
					<dim>3</dim>
				</port>
			</input>
			<output>
				<port id="2" precision="FP32">
					<dim>-1</dim>
					<dim>192</dim>
					<dim>13</dim>
					<dim>-1</dim>
				</port>
			</output>
		</layer>
		<layer id="217" name="Reshape_863" type="Const" version="opset1">
			<data element_type="f32" shape="1, 192, 1, 1" offset="8585352" size="768" />
			<output>
				<port id="0" precision="FP32">
					<dim>1</dim>
					<dim>192</dim>
					<dim>1</dim>
					<dim>1</dim>
				</port>
			</output>
		</layer>
		<layer id="218" name="/backbone/stage4/stage4.2/blocks/blocks.0/conv2/conv/Conv" type="Add" version="opset1">
			<data auto_broadcast="numpy" />
			<input>
				<port id="0" precision="FP32">
					<dim>-1</dim>
					<dim>192</dim>
					<dim>13</dim>
					<dim>-1</dim>
				</port>
				<port id="1" precision="FP32">
					<dim>1</dim>
					<dim>192</dim>
					<dim>1</dim>
					<dim>1</dim>
				</port>
			</input>
			<output>
				<port id="2" precision="FP32" names="/backbone/stage4/stage4.2/blocks/blocks.0/conv2/conv/Conv_output_0">
					<dim>-1</dim>
					<dim>192</dim>
					<dim>13</dim>
					<dim>-1</dim>
				</port>
			</output>
		</layer>
		<layer id="219" name="/backbone/stage4/stage4.2/blocks/blocks.0/conv2/activate/Mul" type="Swish" version="opset4">
			<input>
				<port id="0" precision="FP32">
					<dim>-1</dim>
					<dim>192</dim>
					<dim>13</dim>
					<dim>-1</dim>
				</port>
			</input>
			<output>
				<port id="1" precision="FP32" names="/backbone/stage4/stage4.2/blocks/blocks.0/conv2/activate/Mul_output_0">
					<dim>-1</dim>
					<dim>192</dim>
					<dim>13</dim>
					<dim>-1</dim>
				</port>
			</output>
		</layer>
		<layer id="220" name="onnx::Conv_1415" type="Const" version="opset1">
			<data element_type="f32" shape="192, 384, 1, 1" offset="8586120" size="294912" />
			<output>
				<port id="0" precision="FP32" names="onnx::Conv_1415">
					<dim>192</dim>
					<dim>384</dim>
					<dim>1</dim>
					<dim>1</dim>
				</port>
			</output>
		</layer>
		<layer id="221" name="/backbone/stage4/stage4.2/short_conv/conv/Conv/WithoutBiases" type="Convolution" version="opset1">
			<data strides="1, 1" dilations="1, 1" pads_begin="0, 0" pads_end="0, 0" auto_pad="explicit" />
			<input>
				<port id="0" precision="FP32">
					<dim>-1</dim>
					<dim>384</dim>
					<dim>13</dim>
					<dim>-1</dim>
				</port>
				<port id="1" precision="FP32">
					<dim>192</dim>
					<dim>384</dim>
					<dim>1</dim>
					<dim>1</dim>
				</port>
			</input>
			<output>
				<port id="2" precision="FP32">
					<dim>-1</dim>
					<dim>192</dim>
					<dim>13</dim>
					<dim>-1</dim>
				</port>
			</output>
		</layer>
		<layer id="222" name="Reshape_812" type="Const" version="opset1">
			<data element_type="f32" shape="1, 192, 1, 1" offset="8881032" size="768" />
			<output>
				<port id="0" precision="FP32">
					<dim>1</dim>
					<dim>192</dim>
					<dim>1</dim>
					<dim>1</dim>
				</port>
			</output>
		</layer>
		<layer id="223" name="/backbone/stage4/stage4.2/short_conv/conv/Conv" type="Add" version="opset1">
			<data auto_broadcast="numpy" />
			<input>
				<port id="0" precision="FP32">
					<dim>-1</dim>
					<dim>192</dim>
					<dim>13</dim>
					<dim>-1</dim>
				</port>
				<port id="1" precision="FP32">
					<dim>1</dim>
					<dim>192</dim>
					<dim>1</dim>
					<dim>1</dim>
				</port>
			</input>
			<output>
				<port id="2" precision="FP32" names="/backbone/stage4/stage4.2/short_conv/conv/Conv_output_0">
					<dim>-1</dim>
					<dim>192</dim>
					<dim>13</dim>
					<dim>-1</dim>
				</port>
			</output>
		</layer>
		<layer id="224" name="/backbone/stage4/stage4.2/short_conv/activate/Mul" type="Swish" version="opset4">
			<input>
				<port id="0" precision="FP32">
					<dim>-1</dim>
					<dim>192</dim>
					<dim>13</dim>
					<dim>-1</dim>
				</port>
			</input>
			<output>
				<port id="1" precision="FP32" names="/backbone/stage4/stage4.2/short_conv/activate/Mul_output_0">
					<dim>-1</dim>
					<dim>192</dim>
					<dim>13</dim>
					<dim>-1</dim>
				</port>
			</output>
		</layer>
		<layer id="225" name="/backbone/stage4/stage4.2/Concat" type="Concat" version="opset1">
			<data axis="1" />
			<input>
				<port id="0" precision="FP32">
					<dim>-1</dim>
					<dim>192</dim>
					<dim>13</dim>
					<dim>-1</dim>
				</port>
				<port id="1" precision="FP32">
					<dim>-1</dim>
					<dim>192</dim>
					<dim>13</dim>
					<dim>-1</dim>
				</port>
			</input>
			<output>
				<port id="2" precision="FP32" names="/backbone/stage4/stage4.2/Concat_output_0">
					<dim>-1</dim>
					<dim>384</dim>
					<dim>13</dim>
					<dim>-1</dim>
				</port>
			</output>
		</layer>
		<layer id="226" name="onnx::Conv_1427" type="Const" version="opset1">
			<data element_type="f32" shape="384, 384, 1, 1" offset="8881800" size="589824" />
			<output>
				<port id="0" precision="FP32" names="onnx::Conv_1427">
					<dim>384</dim>
					<dim>384</dim>
					<dim>1</dim>
					<dim>1</dim>
				</port>
			</output>
		</layer>
		<layer id="227" name="/backbone/stage4/stage4.2/final_conv/conv/Conv/WithoutBiases" type="Convolution" version="opset1">
			<data strides="1, 1" dilations="1, 1" pads_begin="0, 0" pads_end="0, 0" auto_pad="explicit" />
			<input>
				<port id="0" precision="FP32">
					<dim>-1</dim>
					<dim>384</dim>
					<dim>13</dim>
					<dim>-1</dim>
				</port>
				<port id="1" precision="FP32">
					<dim>384</dim>
					<dim>384</dim>
					<dim>1</dim>
					<dim>1</dim>
				</port>
			</input>
			<output>
				<port id="2" precision="FP32">
					<dim>-1</dim>
					<dim>384</dim>
					<dim>13</dim>
					<dim>-1</dim>
				</port>
			</output>
		</layer>
		<layer id="228" name="Reshape_881" type="Const" version="opset1">
			<data element_type="f32" shape="1, 384, 1, 1" offset="9471624" size="1536" />
			<output>
				<port id="0" precision="FP32">
					<dim>1</dim>
					<dim>384</dim>
					<dim>1</dim>
					<dim>1</dim>
				</port>
			</output>
		</layer>
		<layer id="229" name="/backbone/stage4/stage4.2/final_conv/conv/Conv" type="Add" version="opset1">
			<data auto_broadcast="numpy" />
			<input>
				<port id="0" precision="FP32">
					<dim>-1</dim>
					<dim>384</dim>
					<dim>13</dim>
					<dim>-1</dim>
				</port>
				<port id="1" precision="FP32">
					<dim>1</dim>
					<dim>384</dim>
					<dim>1</dim>
					<dim>1</dim>
				</port>
			</input>
			<output>
				<port id="2" precision="FP32" names="/backbone/stage4/stage4.2/final_conv/conv/Conv_output_0">
					<dim>-1</dim>
					<dim>384</dim>
					<dim>13</dim>
					<dim>-1</dim>
				</port>
			</output>
		</layer>
		<layer id="230" name="/backbone/stage4/stage4.2/final_conv/activate/Mul" type="Swish" version="opset4">
			<input>
				<port id="0" precision="FP32">
					<dim>-1</dim>
					<dim>384</dim>
					<dim>13</dim>
					<dim>-1</dim>
				</port>
			</input>
			<output>
				<port id="1" precision="FP32" names="/backbone/stage4/stage4.2/final_conv/activate/Mul_output_0">
					<dim>-1</dim>
					<dim>384</dim>
					<dim>13</dim>
					<dim>-1</dim>
				</port>
			</output>
		</layer>
		<layer id="231" name="onnx::Conv_1430" type="Const" version="opset1">
			<data element_type="f32" shape="192, 384, 1, 1" offset="9473160" size="294912" />
			<output>
				<port id="0" precision="FP32" names="onnx::Conv_1430">
					<dim>192</dim>
					<dim>384</dim>
					<dim>1</dim>
					<dim>1</dim>
				</port>
			</output>
		</layer>
		<layer id="232" name="/neck/reduce_layers.0/conv/Conv/WithoutBiases" type="Convolution" version="opset1">
			<data strides="1, 1" dilations="1, 1" pads_begin="0, 0" pads_end="0, 0" auto_pad="explicit" />
			<input>
				<port id="0" precision="FP32">
					<dim>-1</dim>
					<dim>384</dim>
					<dim>13</dim>
					<dim>-1</dim>
				</port>
				<port id="1" precision="FP32">
					<dim>192</dim>
					<dim>384</dim>
					<dim>1</dim>
					<dim>1</dim>
				</port>
			</input>
			<output>
				<port id="2" precision="FP32">
					<dim>-1</dim>
					<dim>192</dim>
					<dim>13</dim>
					<dim>-1</dim>
				</port>
			</output>
		</layer>
		<layer id="233" name="Reshape_898" type="Const" version="opset1">
			<data element_type="f32" shape="1, 192, 1, 1" offset="9768072" size="768" />
			<output>
				<port id="0" precision="FP32">
					<dim>1</dim>
					<dim>192</dim>
					<dim>1</dim>
					<dim>1</dim>
				</port>
			</output>
		</layer>
		<layer id="234" name="/neck/reduce_layers.0/conv/Conv" type="Add" version="opset1">
			<data auto_broadcast="numpy" />
			<input>
				<port id="0" precision="FP32">
					<dim>-1</dim>
					<dim>192</dim>
					<dim>13</dim>
					<dim>-1</dim>
				</port>
				<port id="1" precision="FP32">
					<dim>1</dim>
					<dim>192</dim>
					<dim>1</dim>
					<dim>1</dim>
				</port>
			</input>
			<output>
				<port id="2" precision="FP32" names="/neck/reduce_layers.0/conv/Conv_output_0">
					<dim>-1</dim>
					<dim>192</dim>
					<dim>13</dim>
					<dim>-1</dim>
				</port>
			</output>
		</layer>
		<layer id="235" name="/neck/reduce_layers.0/activate/Mul" type="Swish" version="opset4">
			<input>
				<port id="0" precision="FP32">
					<dim>-1</dim>
					<dim>192</dim>
					<dim>13</dim>
					<dim>-1</dim>
				</port>
			</input>
			<output>
				<port id="1" precision="FP32" names="/neck/reduce_layers.0/activate/Mul_output_0">
					<dim>-1</dim>
					<dim>192</dim>
					<dim>13</dim>
					<dim>-1</dim>
				</port>
			</output>
		</layer>
		<layer id="236" name="/neck/upsample/Constant" type="Const" version="opset1">
			<data element_type="f32" shape="4" offset="9768840" size="16" />
			<output>
				<port id="0" precision="FP32" names="/neck/upsample/Constant_output_0">
					<dim>4</dim>
				</port>
			</output>
		</layer>
		<layer id="237" name="/neck/upsample/Resize" type="Interpolate" version="opset11">
			<data mode="nearest" shape_calculation_mode="scales" coordinate_transformation_mode="asymmetric" nearest_mode="floor" antialias="false" pads_begin="0, 0, 0, 0" pads_end="0, 0, 0, 0" cube_coeff="-0.75" />
			<input>
				<port id="0" precision="FP32">
					<dim>-1</dim>
					<dim>192</dim>
					<dim>13</dim>
					<dim>-1</dim>
				</port>
				<port id="1" precision="FP32">
					<dim>4</dim>
				</port>
			</input>
			<output>
				<port id="2" precision="FP32" names="/neck/upsample/Resize_output_0">
					<dim>-1</dim>
					<dim>192</dim>
					<dim>26</dim>
					<dim>-1</dim>
				</port>
			</output>
		</layer>
		<layer id="238" name="/neck/Concat" type="Concat" version="opset1">
			<data axis="1" />
			<input>
				<port id="0" precision="FP32">
					<dim>-1</dim>
					<dim>192</dim>
					<dim>26</dim>
					<dim>-1</dim>
				</port>
				<port id="1" precision="FP32">
					<dim>-1</dim>
					<dim>192</dim>
					<dim>26</dim>
					<dim>-1</dim>
				</port>
			</input>
			<output>
				<port id="2" precision="FP32" names="/neck/Concat_output_0">
					<dim>-1</dim>
					<dim>384</dim>
					<dim>26</dim>
					<dim>-1</dim>
				</port>
			</output>
		</layer>
		<layer id="239" name="onnx::Conv_1436" type="Const" version="opset1">
			<data element_type="f32" shape="96, 384, 1, 1" offset="9768856" size="147456" />
			<output>
				<port id="0" precision="FP32" names="onnx::Conv_1436">
					<dim>96</dim>
					<dim>384</dim>
					<dim>1</dim>
					<dim>1</dim>
				</port>
			</output>
		</layer>
		<layer id="240" name="/neck/top_down_blocks.0/main_conv/conv/Conv/WithoutBiases" type="Convolution" version="opset1">
			<data strides="1, 1" dilations="1, 1" pads_begin="0, 0" pads_end="0, 0" auto_pad="explicit" />
			<input>
				<port id="0" precision="FP32">
					<dim>-1</dim>
					<dim>384</dim>
					<dim>26</dim>
					<dim>-1</dim>
				</port>
				<port id="1" precision="FP32">
					<dim>96</dim>
					<dim>384</dim>
					<dim>1</dim>
					<dim>1</dim>
				</port>
			</input>
			<output>
				<port id="2" precision="FP32">
					<dim>-1</dim>
					<dim>96</dim>
					<dim>26</dim>
					<dim>-1</dim>
				</port>
			</output>
		</layer>
		<layer id="241" name="Reshape_936" type="Const" version="opset1">
			<data element_type="f32" shape="1, 96, 1, 1" offset="9916312" size="384" />
			<output>
				<port id="0" precision="FP32">
					<dim>1</dim>
					<dim>96</dim>
					<dim>1</dim>
					<dim>1</dim>
				</port>
			</output>
		</layer>
		<layer id="242" name="/neck/top_down_blocks.0/main_conv/conv/Conv" type="Add" version="opset1">
			<data auto_broadcast="numpy" />
			<input>
				<port id="0" precision="FP32">
					<dim>-1</dim>
					<dim>96</dim>
					<dim>26</dim>
					<dim>-1</dim>
				</port>
				<port id="1" precision="FP32">
					<dim>1</dim>
					<dim>96</dim>
					<dim>1</dim>
					<dim>1</dim>
				</port>
			</input>
			<output>
				<port id="2" precision="FP32" names="/neck/top_down_blocks.0/main_conv/conv/Conv_output_0">
					<dim>-1</dim>
					<dim>96</dim>
					<dim>26</dim>
					<dim>-1</dim>
				</port>
			</output>
		</layer>
		<layer id="243" name="/neck/top_down_blocks.0/main_conv/activate/Mul" type="Swish" version="opset4">
			<input>
				<port id="0" precision="FP32">
					<dim>-1</dim>
					<dim>96</dim>
					<dim>26</dim>
					<dim>-1</dim>
				</port>
			</input>
			<output>
				<port id="1" precision="FP32" names="/neck/top_down_blocks.0/main_conv/activate/Mul_output_0">
					<dim>-1</dim>
					<dim>96</dim>
					<dim>26</dim>
					<dim>-1</dim>
				</port>
			</output>
		</layer>
		<layer id="244" name="onnx::Conv_1439" type="Const" version="opset1">
			<data element_type="f32" shape="96, 96, 1, 1" offset="9916696" size="36864" />
			<output>
				<port id="0" precision="FP32" names="onnx::Conv_1439">
					<dim>96</dim>
					<dim>96</dim>
					<dim>1</dim>
					<dim>1</dim>
				</port>
			</output>
		</layer>
		<layer id="245" name="/neck/top_down_blocks.0/blocks/blocks.0/conv1/conv/Conv/WithoutBiases" type="Convolution" version="opset1">
			<data strides="1, 1" dilations="1, 1" pads_begin="0, 0" pads_end="0, 0" auto_pad="explicit" />
			<input>
				<port id="0" precision="FP32">
					<dim>-1</dim>
					<dim>96</dim>
					<dim>26</dim>
					<dim>-1</dim>
				</port>
				<port id="1" precision="FP32">
					<dim>96</dim>
					<dim>96</dim>
					<dim>1</dim>
					<dim>1</dim>
				</port>
			</input>
			<output>
				<port id="2" precision="FP32">
					<dim>-1</dim>
					<dim>96</dim>
					<dim>26</dim>
					<dim>-1</dim>
				</port>
			</output>
		</layer>
		<layer id="246" name="Reshape_953" type="Const" version="opset1">
			<data element_type="f32" shape="1, 96, 1, 1" offset="9953560" size="384" />
			<output>
				<port id="0" precision="FP32">
					<dim>1</dim>
					<dim>96</dim>
					<dim>1</dim>
					<dim>1</dim>
				</port>
			</output>
		</layer>
		<layer id="247" name="/neck/top_down_blocks.0/blocks/blocks.0/conv1/conv/Conv" type="Add" version="opset1">
			<data auto_broadcast="numpy" />
			<input>
				<port id="0" precision="FP32">
					<dim>-1</dim>
					<dim>96</dim>
					<dim>26</dim>
					<dim>-1</dim>
				</port>
				<port id="1" precision="FP32">
					<dim>1</dim>
					<dim>96</dim>
					<dim>1</dim>
					<dim>1</dim>
				</port>
			</input>
			<output>
				<port id="2" precision="FP32" names="/neck/top_down_blocks.0/blocks/blocks.0/conv1/conv/Conv_output_0">
					<dim>-1</dim>
					<dim>96</dim>
					<dim>26</dim>
					<dim>-1</dim>
				</port>
			</output>
		</layer>
		<layer id="248" name="/neck/top_down_blocks.0/blocks/blocks.0/conv1/activate/Mul" type="Swish" version="opset4">
			<input>
				<port id="0" precision="FP32">
					<dim>-1</dim>
					<dim>96</dim>
					<dim>26</dim>
					<dim>-1</dim>
				</port>
			</input>
			<output>
				<port id="1" precision="FP32" names="/neck/top_down_blocks.0/blocks/blocks.0/conv1/activate/Mul_output_0">
					<dim>-1</dim>
					<dim>96</dim>
					<dim>26</dim>
					<dim>-1</dim>
				</port>
			</output>
		</layer>
		<layer id="249" name="onnx::Conv_1442" type="Const" version="opset1">
			<data element_type="f32" shape="96, 96, 3, 3" offset="9953944" size="331776" />
			<output>
				<port id="0" precision="FP32" names="onnx::Conv_1442">
					<dim>96</dim>
					<dim>96</dim>
					<dim>3</dim>
					<dim>3</dim>
				</port>
			</output>
		</layer>
		<layer id="250" name="/neck/top_down_blocks.0/blocks/blocks.0/conv2/conv/Conv/WithoutBiases" type="Convolution" version="opset1">
			<data strides="1, 1" dilations="1, 1" pads_begin="1, 1" pads_end="1, 1" auto_pad="explicit" />
			<input>
				<port id="0" precision="FP32">
					<dim>-1</dim>
					<dim>96</dim>
					<dim>26</dim>
					<dim>-1</dim>
				</port>
				<port id="1" precision="FP32">
					<dim>96</dim>
					<dim>96</dim>
					<dim>3</dim>
					<dim>3</dim>
				</port>
			</input>
			<output>
				<port id="2" precision="FP32">
					<dim>-1</dim>
					<dim>96</dim>
					<dim>26</dim>
					<dim>-1</dim>
				</port>
			</output>
		</layer>
		<layer id="251" name="Reshape_970" type="Const" version="opset1">
			<data element_type="f32" shape="1, 96, 1, 1" offset="10285720" size="384" />
			<output>
				<port id="0" precision="FP32">
					<dim>1</dim>
					<dim>96</dim>
					<dim>1</dim>
					<dim>1</dim>
				</port>
			</output>
		</layer>
		<layer id="252" name="/neck/top_down_blocks.0/blocks/blocks.0/conv2/conv/Conv" type="Add" version="opset1">
			<data auto_broadcast="numpy" />
			<input>
				<port id="0" precision="FP32">
					<dim>-1</dim>
					<dim>96</dim>
					<dim>26</dim>
					<dim>-1</dim>
				</port>
				<port id="1" precision="FP32">
					<dim>1</dim>
					<dim>96</dim>
					<dim>1</dim>
					<dim>1</dim>
				</port>
			</input>
			<output>
				<port id="2" precision="FP32" names="/neck/top_down_blocks.0/blocks/blocks.0/conv2/conv/Conv_output_0">
					<dim>-1</dim>
					<dim>96</dim>
					<dim>26</dim>
					<dim>-1</dim>
				</port>
			</output>
		</layer>
		<layer id="253" name="/neck/top_down_blocks.0/blocks/blocks.0/conv2/activate/Mul" type="Swish" version="opset4">
			<input>
				<port id="0" precision="FP32">
					<dim>-1</dim>
					<dim>96</dim>
					<dim>26</dim>
					<dim>-1</dim>
				</port>
			</input>
			<output>
				<port id="1" precision="FP32" names="/neck/top_down_blocks.0/blocks/blocks.0/conv2/activate/Mul_output_0">
					<dim>-1</dim>
					<dim>96</dim>
					<dim>26</dim>
					<dim>-1</dim>
				</port>
			</output>
		</layer>
		<layer id="254" name="onnx::Conv_1433" type="Const" version="opset1">
			<data element_type="f32" shape="96, 384, 1, 1" offset="10286104" size="147456" />
			<output>
				<port id="0" precision="FP32" names="onnx::Conv_1433">
					<dim>96</dim>
					<dim>384</dim>
					<dim>1</dim>
					<dim>1</dim>
				</port>
			</output>
		</layer>
		<layer id="255" name="/neck/top_down_blocks.0/short_conv/conv/Conv/WithoutBiases" type="Convolution" version="opset1">
			<data strides="1, 1" dilations="1, 1" pads_begin="0, 0" pads_end="0, 0" auto_pad="explicit" />
			<input>
				<port id="0" precision="FP32">
					<dim>-1</dim>
					<dim>384</dim>
					<dim>26</dim>
					<dim>-1</dim>
				</port>
				<port id="1" precision="FP32">
					<dim>96</dim>
					<dim>384</dim>
					<dim>1</dim>
					<dim>1</dim>
				</port>
			</input>
			<output>
				<port id="2" precision="FP32">
					<dim>-1</dim>
					<dim>96</dim>
					<dim>26</dim>
					<dim>-1</dim>
				</port>
			</output>
		</layer>
		<layer id="256" name="Reshape_919" type="Const" version="opset1">
			<data element_type="f32" shape="1, 96, 1, 1" offset="10433560" size="384" />
			<output>
				<port id="0" precision="FP32">
					<dim>1</dim>
					<dim>96</dim>
					<dim>1</dim>
					<dim>1</dim>
				</port>
			</output>
		</layer>
		<layer id="257" name="/neck/top_down_blocks.0/short_conv/conv/Conv" type="Add" version="opset1">
			<data auto_broadcast="numpy" />
			<input>
				<port id="0" precision="FP32">
					<dim>-1</dim>
					<dim>96</dim>
					<dim>26</dim>
					<dim>-1</dim>
				</port>
				<port id="1" precision="FP32">
					<dim>1</dim>
					<dim>96</dim>
					<dim>1</dim>
					<dim>1</dim>
				</port>
			</input>
			<output>
				<port id="2" precision="FP32" names="/neck/top_down_blocks.0/short_conv/conv/Conv_output_0">
					<dim>-1</dim>
					<dim>96</dim>
					<dim>26</dim>
					<dim>-1</dim>
				</port>
			</output>
		</layer>
		<layer id="258" name="/neck/top_down_blocks.0/short_conv/activate/Mul" type="Swish" version="opset4">
			<input>
				<port id="0" precision="FP32">
					<dim>-1</dim>
					<dim>96</dim>
					<dim>26</dim>
					<dim>-1</dim>
				</port>
			</input>
			<output>
				<port id="1" precision="FP32" names="/neck/top_down_blocks.0/short_conv/activate/Mul_output_0">
					<dim>-1</dim>
					<dim>96</dim>
					<dim>26</dim>
					<dim>-1</dim>
				</port>
			</output>
		</layer>
		<layer id="259" name="/neck/top_down_blocks.0/Concat" type="Concat" version="opset1">
			<data axis="1" />
			<input>
				<port id="0" precision="FP32">
					<dim>-1</dim>
					<dim>96</dim>
					<dim>26</dim>
					<dim>-1</dim>
				</port>
				<port id="1" precision="FP32">
					<dim>-1</dim>
					<dim>96</dim>
					<dim>26</dim>
					<dim>-1</dim>
				</port>
			</input>
			<output>
				<port id="2" precision="FP32" names="/neck/top_down_blocks.0/Concat_output_0">
					<dim>-1</dim>
					<dim>192</dim>
					<dim>26</dim>
					<dim>-1</dim>
				</port>
			</output>
		</layer>
		<layer id="260" name="onnx::Conv_1445" type="Const" version="opset1">
			<data element_type="f32" shape="192, 192, 1, 1" offset="10433944" size="147456" />
			<output>
				<port id="0" precision="FP32" names="onnx::Conv_1445">
					<dim>192</dim>
					<dim>192</dim>
					<dim>1</dim>
					<dim>1</dim>
				</port>
			</output>
		</layer>
		<layer id="261" name="/neck/top_down_blocks.0/final_conv/conv/Conv/WithoutBiases" type="Convolution" version="opset1">
			<data strides="1, 1" dilations="1, 1" pads_begin="0, 0" pads_end="0, 0" auto_pad="explicit" />
			<input>
				<port id="0" precision="FP32">
					<dim>-1</dim>
					<dim>192</dim>
					<dim>26</dim>
					<dim>-1</dim>
				</port>
				<port id="1" precision="FP32">
					<dim>192</dim>
					<dim>192</dim>
					<dim>1</dim>
					<dim>1</dim>
				</port>
			</input>
			<output>
				<port id="2" precision="FP32">
					<dim>-1</dim>
					<dim>192</dim>
					<dim>26</dim>
					<dim>-1</dim>
				</port>
			</output>
		</layer>
		<layer id="262" name="Reshape_988" type="Const" version="opset1">
			<data element_type="f32" shape="1, 192, 1, 1" offset="10581400" size="768" />
			<output>
				<port id="0" precision="FP32">
					<dim>1</dim>
					<dim>192</dim>
					<dim>1</dim>
					<dim>1</dim>
				</port>
			</output>
		</layer>
		<layer id="263" name="/neck/top_down_blocks.0/final_conv/conv/Conv" type="Add" version="opset1">
			<data auto_broadcast="numpy" />
			<input>
				<port id="0" precision="FP32">
					<dim>-1</dim>
					<dim>192</dim>
					<dim>26</dim>
					<dim>-1</dim>
				</port>
				<port id="1" precision="FP32">
					<dim>1</dim>
					<dim>192</dim>
					<dim>1</dim>
					<dim>1</dim>
				</port>
			</input>
			<output>
				<port id="2" precision="FP32" names="/neck/top_down_blocks.0/final_conv/conv/Conv_output_0">
					<dim>-1</dim>
					<dim>192</dim>
					<dim>26</dim>
					<dim>-1</dim>
				</port>
			</output>
		</layer>
		<layer id="264" name="/neck/top_down_blocks.0/final_conv/activate/Mul" type="Swish" version="opset4">
			<input>
				<port id="0" precision="FP32">
					<dim>-1</dim>
					<dim>192</dim>
					<dim>26</dim>
					<dim>-1</dim>
				</port>
			</input>
			<output>
				<port id="1" precision="FP32" names="/neck/top_down_blocks.0/final_conv/activate/Mul_output_0">
					<dim>-1</dim>
					<dim>192</dim>
					<dim>26</dim>
					<dim>-1</dim>
				</port>
			</output>
		</layer>
		<layer id="265" name="onnx::Conv_1448" type="Const" version="opset1">
			<data element_type="f32" shape="96, 192, 1, 1" offset="10582168" size="73728" />
			<output>
				<port id="0" precision="FP32" names="onnx::Conv_1448">
					<dim>96</dim>
					<dim>192</dim>
					<dim>1</dim>
					<dim>1</dim>
				</port>
			</output>
		</layer>
		<layer id="266" name="/neck/reduce_layers.1/conv/Conv/WithoutBiases" type="Convolution" version="opset1">
			<data strides="1, 1" dilations="1, 1" pads_begin="0, 0" pads_end="0, 0" auto_pad="explicit" />
			<input>
				<port id="0" precision="FP32">
					<dim>-1</dim>
					<dim>192</dim>
					<dim>26</dim>
					<dim>-1</dim>
				</port>
				<port id="1" precision="FP32">
					<dim>96</dim>
					<dim>192</dim>
					<dim>1</dim>
					<dim>1</dim>
				</port>
			</input>
			<output>
				<port id="2" precision="FP32">
					<dim>-1</dim>
					<dim>96</dim>
					<dim>26</dim>
					<dim>-1</dim>
				</port>
			</output>
		</layer>
		<layer id="267" name="Reshape_1005" type="Const" version="opset1">
			<data element_type="f32" shape="1, 96, 1, 1" offset="10655896" size="384" />
			<output>
				<port id="0" precision="FP32">
					<dim>1</dim>
					<dim>96</dim>
					<dim>1</dim>
					<dim>1</dim>
				</port>
			</output>
		</layer>
		<layer id="268" name="/neck/reduce_layers.1/conv/Conv" type="Add" version="opset1">
			<data auto_broadcast="numpy" />
			<input>
				<port id="0" precision="FP32">
					<dim>-1</dim>
					<dim>96</dim>
					<dim>26</dim>
					<dim>-1</dim>
				</port>
				<port id="1" precision="FP32">
					<dim>1</dim>
					<dim>96</dim>
					<dim>1</dim>
					<dim>1</dim>
				</port>
			</input>
			<output>
				<port id="2" precision="FP32" names="/neck/reduce_layers.1/conv/Conv_output_0">
					<dim>-1</dim>
					<dim>96</dim>
					<dim>26</dim>
					<dim>-1</dim>
				</port>
			</output>
		</layer>
		<layer id="269" name="/neck/reduce_layers.1/activate/Mul" type="Swish" version="opset4">
			<input>
				<port id="0" precision="FP32">
					<dim>-1</dim>
					<dim>96</dim>
					<dim>26</dim>
					<dim>-1</dim>
				</port>
			</input>
			<output>
				<port id="1" precision="FP32" names="/neck/reduce_layers.1/activate/Mul_output_0">
					<dim>-1</dim>
					<dim>96</dim>
					<dim>26</dim>
					<dim>-1</dim>
				</port>
			</output>
		</layer>
		<layer id="270" name="/neck/upsample_1/Constant" type="Const" version="opset1">
			<data element_type="f32" shape="4" offset="9768840" size="16" />
			<output>
				<port id="0" precision="FP32" names="/neck/upsample_1/Constant_output_0">
					<dim>4</dim>
				</port>
			</output>
		</layer>
		<layer id="271" name="/neck/upsample_1/Resize" type="Interpolate" version="opset11">
			<data mode="nearest" shape_calculation_mode="scales" coordinate_transformation_mode="asymmetric" nearest_mode="floor" antialias="false" pads_begin="0, 0, 0, 0" pads_end="0, 0, 0, 0" cube_coeff="-0.75" />
			<input>
				<port id="0" precision="FP32">
					<dim>-1</dim>
					<dim>96</dim>
					<dim>26</dim>
					<dim>-1</dim>
				</port>
				<port id="1" precision="FP32">
					<dim>4</dim>
				</port>
			</input>
			<output>
				<port id="2" precision="FP32" names="/neck/upsample_1/Resize_output_0">
					<dim>-1</dim>
					<dim>96</dim>
					<dim>52</dim>
					<dim>-1</dim>
				</port>
			</output>
		</layer>
		<layer id="272" name="/neck/Concat_1" type="Concat" version="opset1">
			<data axis="1" />
			<input>
				<port id="0" precision="FP32">
					<dim>-1</dim>
					<dim>96</dim>
					<dim>52</dim>
					<dim>-1</dim>
				</port>
				<port id="1" precision="FP32">
					<dim>-1</dim>
					<dim>96</dim>
					<dim>52</dim>
					<dim>-1</dim>
				</port>
			</input>
			<output>
				<port id="2" precision="FP32" names="/neck/Concat_1_output_0">
					<dim>-1</dim>
					<dim>192</dim>
					<dim>52</dim>
					<dim>-1</dim>
				</port>
			</output>
		</layer>
		<layer id="273" name="onnx::Conv_1454" type="Const" version="opset1">
			<data element_type="f32" shape="48, 192, 1, 1" offset="10656280" size="36864" />
			<output>
				<port id="0" precision="FP32" names="onnx::Conv_1454">
					<dim>48</dim>
					<dim>192</dim>
					<dim>1</dim>
					<dim>1</dim>
				</port>
			</output>
		</layer>
		<layer id="274" name="/neck/top_down_blocks.1/main_conv/conv/Conv/WithoutBiases" type="Convolution" version="opset1">
			<data strides="1, 1" dilations="1, 1" pads_begin="0, 0" pads_end="0, 0" auto_pad="explicit" />
			<input>
				<port id="0" precision="FP32">
					<dim>-1</dim>
					<dim>192</dim>
					<dim>52</dim>
					<dim>-1</dim>
				</port>
				<port id="1" precision="FP32">
					<dim>48</dim>
					<dim>192</dim>
					<dim>1</dim>
					<dim>1</dim>
				</port>
			</input>
			<output>
				<port id="2" precision="FP32">
					<dim>-1</dim>
					<dim>48</dim>
					<dim>52</dim>
					<dim>-1</dim>
				</port>
			</output>
		</layer>
		<layer id="275" name="Reshape_1043" type="Const" version="opset1">
			<data element_type="f32" shape="1, 48, 1, 1" offset="10693144" size="192" />
			<output>
				<port id="0" precision="FP32">
					<dim>1</dim>
					<dim>48</dim>
					<dim>1</dim>
					<dim>1</dim>
				</port>
			</output>
		</layer>
		<layer id="276" name="/neck/top_down_blocks.1/main_conv/conv/Conv" type="Add" version="opset1">
			<data auto_broadcast="numpy" />
			<input>
				<port id="0" precision="FP32">
					<dim>-1</dim>
					<dim>48</dim>
					<dim>52</dim>
					<dim>-1</dim>
				</port>
				<port id="1" precision="FP32">
					<dim>1</dim>
					<dim>48</dim>
					<dim>1</dim>
					<dim>1</dim>
				</port>
			</input>
			<output>
				<port id="2" precision="FP32" names="/neck/top_down_blocks.1/main_conv/conv/Conv_output_0">
					<dim>-1</dim>
					<dim>48</dim>
					<dim>52</dim>
					<dim>-1</dim>
				</port>
			</output>
		</layer>
		<layer id="277" name="/neck/top_down_blocks.1/main_conv/activate/Mul" type="Swish" version="opset4">
			<input>
				<port id="0" precision="FP32">
					<dim>-1</dim>
					<dim>48</dim>
					<dim>52</dim>
					<dim>-1</dim>
				</port>
			</input>
			<output>
				<port id="1" precision="FP32" names="/neck/top_down_blocks.1/main_conv/activate/Mul_output_0">
					<dim>-1</dim>
					<dim>48</dim>
					<dim>52</dim>
					<dim>-1</dim>
				</port>
			</output>
		</layer>
		<layer id="278" name="onnx::Conv_1457" type="Const" version="opset1">
			<data element_type="f32" shape="48, 48, 1, 1" offset="10693336" size="9216" />
			<output>
				<port id="0" precision="FP32" names="onnx::Conv_1457">
					<dim>48</dim>
					<dim>48</dim>
					<dim>1</dim>
					<dim>1</dim>
				</port>
			</output>
		</layer>
		<layer id="279" name="/neck/top_down_blocks.1/blocks/blocks.0/conv1/conv/Conv/WithoutBiases" type="Convolution" version="opset1">
			<data strides="1, 1" dilations="1, 1" pads_begin="0, 0" pads_end="0, 0" auto_pad="explicit" />
			<input>
				<port id="0" precision="FP32">
					<dim>-1</dim>
					<dim>48</dim>
					<dim>52</dim>
					<dim>-1</dim>
				</port>
				<port id="1" precision="FP32">
					<dim>48</dim>
					<dim>48</dim>
					<dim>1</dim>
					<dim>1</dim>
				</port>
			</input>
			<output>
				<port id="2" precision="FP32">
					<dim>-1</dim>
					<dim>48</dim>
					<dim>52</dim>
					<dim>-1</dim>
				</port>
			</output>
		</layer>
		<layer id="280" name="Reshape_1060" type="Const" version="opset1">
			<data element_type="f32" shape="1, 48, 1, 1" offset="10702552" size="192" />
			<output>
				<port id="0" precision="FP32">
					<dim>1</dim>
					<dim>48</dim>
					<dim>1</dim>
					<dim>1</dim>
				</port>
			</output>
		</layer>
		<layer id="281" name="/neck/top_down_blocks.1/blocks/blocks.0/conv1/conv/Conv" type="Add" version="opset1">
			<data auto_broadcast="numpy" />
			<input>
				<port id="0" precision="FP32">
					<dim>-1</dim>
					<dim>48</dim>
					<dim>52</dim>
					<dim>-1</dim>
				</port>
				<port id="1" precision="FP32">
					<dim>1</dim>
					<dim>48</dim>
					<dim>1</dim>
					<dim>1</dim>
				</port>
			</input>
			<output>
				<port id="2" precision="FP32" names="/neck/top_down_blocks.1/blocks/blocks.0/conv1/conv/Conv_output_0">
					<dim>-1</dim>
					<dim>48</dim>
					<dim>52</dim>
					<dim>-1</dim>
				</port>
			</output>
		</layer>
		<layer id="282" name="/neck/top_down_blocks.1/blocks/blocks.0/conv1/activate/Mul" type="Swish" version="opset4">
			<input>
				<port id="0" precision="FP32">
					<dim>-1</dim>
					<dim>48</dim>
					<dim>52</dim>
					<dim>-1</dim>
				</port>
			</input>
			<output>
				<port id="1" precision="FP32" names="/neck/top_down_blocks.1/blocks/blocks.0/conv1/activate/Mul_output_0">
					<dim>-1</dim>
					<dim>48</dim>
					<dim>52</dim>
					<dim>-1</dim>
				</port>
			</output>
		</layer>
		<layer id="283" name="onnx::Conv_1460" type="Const" version="opset1">
			<data element_type="f32" shape="48, 48, 3, 3" offset="10702744" size="82944" />
			<output>
				<port id="0" precision="FP32" names="onnx::Conv_1460">
					<dim>48</dim>
					<dim>48</dim>
					<dim>3</dim>
					<dim>3</dim>
				</port>
			</output>
		</layer>
		<layer id="284" name="/neck/top_down_blocks.1/blocks/blocks.0/conv2/conv/Conv/WithoutBiases" type="Convolution" version="opset1">
			<data strides="1, 1" dilations="1, 1" pads_begin="1, 1" pads_end="1, 1" auto_pad="explicit" />
			<input>
				<port id="0" precision="FP32">
					<dim>-1</dim>
					<dim>48</dim>
					<dim>52</dim>
					<dim>-1</dim>
				</port>
				<port id="1" precision="FP32">
					<dim>48</dim>
					<dim>48</dim>
					<dim>3</dim>
					<dim>3</dim>
				</port>
			</input>
			<output>
				<port id="2" precision="FP32">
					<dim>-1</dim>
					<dim>48</dim>
					<dim>52</dim>
					<dim>-1</dim>
				</port>
			</output>
		</layer>
		<layer id="285" name="Reshape_1077" type="Const" version="opset1">
			<data element_type="f32" shape="1, 48, 1, 1" offset="10785688" size="192" />
			<output>
				<port id="0" precision="FP32">
					<dim>1</dim>
					<dim>48</dim>
					<dim>1</dim>
					<dim>1</dim>
				</port>
			</output>
		</layer>
		<layer id="286" name="/neck/top_down_blocks.1/blocks/blocks.0/conv2/conv/Conv" type="Add" version="opset1">
			<data auto_broadcast="numpy" />
			<input>
				<port id="0" precision="FP32">
					<dim>-1</dim>
					<dim>48</dim>
					<dim>52</dim>
					<dim>-1</dim>
				</port>
				<port id="1" precision="FP32">
					<dim>1</dim>
					<dim>48</dim>
					<dim>1</dim>
					<dim>1</dim>
				</port>
			</input>
			<output>
				<port id="2" precision="FP32" names="/neck/top_down_blocks.1/blocks/blocks.0/conv2/conv/Conv_output_0">
					<dim>-1</dim>
					<dim>48</dim>
					<dim>52</dim>
					<dim>-1</dim>
				</port>
			</output>
		</layer>
		<layer id="287" name="/neck/top_down_blocks.1/blocks/blocks.0/conv2/activate/Mul" type="Swish" version="opset4">
			<input>
				<port id="0" precision="FP32">
					<dim>-1</dim>
					<dim>48</dim>
					<dim>52</dim>
					<dim>-1</dim>
				</port>
			</input>
			<output>
				<port id="1" precision="FP32" names="/neck/top_down_blocks.1/blocks/blocks.0/conv2/activate/Mul_output_0">
					<dim>-1</dim>
					<dim>48</dim>
					<dim>52</dim>
					<dim>-1</dim>
				</port>
			</output>
		</layer>
		<layer id="288" name="onnx::Conv_1451" type="Const" version="opset1">
			<data element_type="f32" shape="48, 192, 1, 1" offset="10785880" size="36864" />
			<output>
				<port id="0" precision="FP32" names="onnx::Conv_1451">
					<dim>48</dim>
					<dim>192</dim>
					<dim>1</dim>
					<dim>1</dim>
				</port>
			</output>
		</layer>
		<layer id="289" name="/neck/top_down_blocks.1/short_conv/conv/Conv/WithoutBiases" type="Convolution" version="opset1">
			<data strides="1, 1" dilations="1, 1" pads_begin="0, 0" pads_end="0, 0" auto_pad="explicit" />
			<input>
				<port id="0" precision="FP32">
					<dim>-1</dim>
					<dim>192</dim>
					<dim>52</dim>
					<dim>-1</dim>
				</port>
				<port id="1" precision="FP32">
					<dim>48</dim>
					<dim>192</dim>
					<dim>1</dim>
					<dim>1</dim>
				</port>
			</input>
			<output>
				<port id="2" precision="FP32">
					<dim>-1</dim>
					<dim>48</dim>
					<dim>52</dim>
					<dim>-1</dim>
				</port>
			</output>
		</layer>
		<layer id="290" name="Reshape_1026" type="Const" version="opset1">
			<data element_type="f32" shape="1, 48, 1, 1" offset="10822744" size="192" />
			<output>
				<port id="0" precision="FP32">
					<dim>1</dim>
					<dim>48</dim>
					<dim>1</dim>
					<dim>1</dim>
				</port>
			</output>
		</layer>
		<layer id="291" name="/neck/top_down_blocks.1/short_conv/conv/Conv" type="Add" version="opset1">
			<data auto_broadcast="numpy" />
			<input>
				<port id="0" precision="FP32">
					<dim>-1</dim>
					<dim>48</dim>
					<dim>52</dim>
					<dim>-1</dim>
				</port>
				<port id="1" precision="FP32">
					<dim>1</dim>
					<dim>48</dim>
					<dim>1</dim>
					<dim>1</dim>
				</port>
			</input>
			<output>
				<port id="2" precision="FP32" names="/neck/top_down_blocks.1/short_conv/conv/Conv_output_0">
					<dim>-1</dim>
					<dim>48</dim>
					<dim>52</dim>
					<dim>-1</dim>
				</port>
			</output>
		</layer>
		<layer id="292" name="/neck/top_down_blocks.1/short_conv/activate/Mul" type="Swish" version="opset4">
			<input>
				<port id="0" precision="FP32">
					<dim>-1</dim>
					<dim>48</dim>
					<dim>52</dim>
					<dim>-1</dim>
				</port>
			</input>
			<output>
				<port id="1" precision="FP32" names="/neck/top_down_blocks.1/short_conv/activate/Mul_output_0">
					<dim>-1</dim>
					<dim>48</dim>
					<dim>52</dim>
					<dim>-1</dim>
				</port>
			</output>
		</layer>
		<layer id="293" name="/neck/top_down_blocks.1/Concat" type="Concat" version="opset1">
			<data axis="1" />
			<input>
				<port id="0" precision="FP32">
					<dim>-1</dim>
					<dim>48</dim>
					<dim>52</dim>
					<dim>-1</dim>
				</port>
				<port id="1" precision="FP32">
					<dim>-1</dim>
					<dim>48</dim>
					<dim>52</dim>
					<dim>-1</dim>
				</port>
			</input>
			<output>
				<port id="2" precision="FP32" names="/neck/top_down_blocks.1/Concat_output_0">
					<dim>-1</dim>
					<dim>96</dim>
					<dim>52</dim>
					<dim>-1</dim>
				</port>
			</output>
		</layer>
		<layer id="294" name="onnx::Conv_1463" type="Const" version="opset1">
			<data element_type="f32" shape="96, 96, 1, 1" offset="10822936" size="36864" />
			<output>
				<port id="0" precision="FP32" names="onnx::Conv_1463">
					<dim>96</dim>
					<dim>96</dim>
					<dim>1</dim>
					<dim>1</dim>
				</port>
			</output>
		</layer>
		<layer id="295" name="/neck/top_down_blocks.1/final_conv/conv/Conv/WithoutBiases" type="Convolution" version="opset1">
			<data strides="1, 1" dilations="1, 1" pads_begin="0, 0" pads_end="0, 0" auto_pad="explicit" />
			<input>
				<port id="0" precision="FP32">
					<dim>-1</dim>
					<dim>96</dim>
					<dim>52</dim>
					<dim>-1</dim>
				</port>
				<port id="1" precision="FP32">
					<dim>96</dim>
					<dim>96</dim>
					<dim>1</dim>
					<dim>1</dim>
				</port>
			</input>
			<output>
				<port id="2" precision="FP32">
					<dim>-1</dim>
					<dim>96</dim>
					<dim>52</dim>
					<dim>-1</dim>
				</port>
			</output>
		</layer>
		<layer id="296" name="Reshape_1095" type="Const" version="opset1">
			<data element_type="f32" shape="1, 96, 1, 1" offset="10859800" size="384" />
			<output>
				<port id="0" precision="FP32">
					<dim>1</dim>
					<dim>96</dim>
					<dim>1</dim>
					<dim>1</dim>
				</port>
			</output>
		</layer>
		<layer id="297" name="/neck/top_down_blocks.1/final_conv/conv/Conv" type="Add" version="opset1">
			<data auto_broadcast="numpy" />
			<input>
				<port id="0" precision="FP32">
					<dim>-1</dim>
					<dim>96</dim>
					<dim>52</dim>
					<dim>-1</dim>
				</port>
				<port id="1" precision="FP32">
					<dim>1</dim>
					<dim>96</dim>
					<dim>1</dim>
					<dim>1</dim>
				</port>
			</input>
			<output>
				<port id="2" precision="FP32" names="/neck/top_down_blocks.1/final_conv/conv/Conv_output_0">
					<dim>-1</dim>
					<dim>96</dim>
					<dim>52</dim>
					<dim>-1</dim>
				</port>
			</output>
		</layer>
		<layer id="298" name="/neck/top_down_blocks.1/final_conv/activate/Mul" type="Swish" version="opset4">
			<input>
				<port id="0" precision="FP32">
					<dim>-1</dim>
					<dim>96</dim>
					<dim>52</dim>
					<dim>-1</dim>
				</port>
			</input>
			<output>
				<port id="1" precision="FP32" names="/neck/top_down_blocks.1/final_conv/activate/Mul_output_0">
					<dim>-1</dim>
					<dim>96</dim>
					<dim>52</dim>
					<dim>-1</dim>
				</port>
			</output>
		</layer>
		<layer id="299" name="onnx::Conv_1502" type="Const" version="opset1">
			<data element_type="f32" shape="96, 96, 1, 1" offset="10860184" size="36864" />
			<output>
				<port id="0" precision="FP32" names="onnx::Conv_1502">
					<dim>96</dim>
					<dim>96</dim>
					<dim>1</dim>
					<dim>1</dim>
				</port>
			</output>
		</layer>
		<layer id="300" name="/neck/out_convs.0/conv/Conv/WithoutBiases" type="Convolution" version="opset1">
			<data strides="1, 1" dilations="1, 1" pads_begin="0, 0" pads_end="0, 0" auto_pad="explicit" />
			<input>
				<port id="0" precision="FP32">
					<dim>-1</dim>
					<dim>96</dim>
					<dim>52</dim>
					<dim>-1</dim>
				</port>
				<port id="1" precision="FP32">
					<dim>96</dim>
					<dim>96</dim>
					<dim>1</dim>
					<dim>1</dim>
				</port>
			</input>
			<output>
				<port id="2" precision="FP32">
					<dim>-1</dim>
					<dim>96</dim>
					<dim>52</dim>
					<dim>-1</dim>
				</port>
			</output>
		</layer>
		<layer id="301" name="Reshape_1320" type="Const" version="opset1">
			<data element_type="f32" shape="1, 96, 1, 1" offset="10897048" size="384" />
			<output>
				<port id="0" precision="FP32">
					<dim>1</dim>
					<dim>96</dim>
					<dim>1</dim>
					<dim>1</dim>
				</port>
			</output>
		</layer>
		<layer id="302" name="/neck/out_convs.0/conv/Conv" type="Add" version="opset1">
			<data auto_broadcast="numpy" />
			<input>
				<port id="0" precision="FP32">
					<dim>-1</dim>
					<dim>96</dim>
					<dim>52</dim>
					<dim>-1</dim>
				</port>
				<port id="1" precision="FP32">
					<dim>1</dim>
					<dim>96</dim>
					<dim>1</dim>
					<dim>1</dim>
				</port>
			</input>
			<output>
				<port id="2" precision="FP32" names="/neck/out_convs.0/conv/Conv_output_0">
					<dim>-1</dim>
					<dim>96</dim>
					<dim>52</dim>
					<dim>-1</dim>
				</port>
			</output>
		</layer>
		<layer id="303" name="/neck/out_convs.0/activate/Mul" type="Swish" version="opset4">
			<input>
				<port id="0" precision="FP32">
					<dim>-1</dim>
					<dim>96</dim>
					<dim>52</dim>
					<dim>-1</dim>
				</port>
			</input>
			<output>
				<port id="1" precision="FP32" names="/neck/out_convs.0/activate/Mul_output_0">
					<dim>-1</dim>
					<dim>96</dim>
					<dim>52</dim>
					<dim>-1</dim>
				</port>
			</output>
		</layer>
		<layer id="304" name="onnx::Conv_1517" type="Const" version="opset1">
			<data element_type="f32" shape="96, 96, 3, 3" offset="10897432" size="331776" />
			<output>
				<port id="0" precision="FP32" names="onnx::Conv_1517">
					<dim>96</dim>
					<dim>96</dim>
					<dim>3</dim>
					<dim>3</dim>
				</port>
			</output>
		</layer>
		<layer id="305" name="/bbox_head/multi_level_reg_convs.0/multi_level_reg_convs.0.0/conv/Conv/WithoutBiases" type="Convolution" version="opset1">
			<data strides="1, 1" dilations="1, 1" pads_begin="1, 1" pads_end="1, 1" auto_pad="explicit" />
			<input>
				<port id="0" precision="FP32">
					<dim>-1</dim>
					<dim>96</dim>
					<dim>52</dim>
					<dim>-1</dim>
				</port>
				<port id="1" precision="FP32">
					<dim>96</dim>
					<dim>96</dim>
					<dim>3</dim>
					<dim>3</dim>
				</port>
			</input>
			<output>
				<port id="2" precision="FP32">
					<dim>-1</dim>
					<dim>96</dim>
					<dim>52</dim>
					<dim>-1</dim>
				</port>
			</output>
		</layer>
		<layer id="306" name="Reshape_1405" type="Const" version="opset1">
			<data element_type="f32" shape="1, 96, 1, 1" offset="11229208" size="384" />
			<output>
				<port id="0" precision="FP32">
					<dim>1</dim>
					<dim>96</dim>
					<dim>1</dim>
					<dim>1</dim>
				</port>
			</output>
		</layer>
		<layer id="307" name="/bbox_head/multi_level_reg_convs.0/multi_level_reg_convs.0.0/conv/Conv" type="Add" version="opset1">
			<data auto_broadcast="numpy" />
			<input>
				<port id="0" precision="FP32">
					<dim>-1</dim>
					<dim>96</dim>
					<dim>52</dim>
					<dim>-1</dim>
				</port>
				<port id="1" precision="FP32">
					<dim>1</dim>
					<dim>96</dim>
					<dim>1</dim>
					<dim>1</dim>
				</port>
			</input>
			<output>
				<port id="2" precision="FP32" names="/bbox_head/multi_level_reg_convs.0/multi_level_reg_convs.0.0/conv/Conv_output_0">
					<dim>-1</dim>
					<dim>96</dim>
					<dim>52</dim>
					<dim>-1</dim>
				</port>
			</output>
		</layer>
		<layer id="308" name="/bbox_head/multi_level_reg_convs.0/multi_level_reg_convs.0.0/activate/Mul" type="Swish" version="opset4">
			<input>
				<port id="0" precision="FP32">
					<dim>-1</dim>
					<dim>96</dim>
					<dim>52</dim>
					<dim>-1</dim>
				</port>
			</input>
			<output>
				<port id="1" precision="FP32" names="/bbox_head/multi_level_reg_convs.0/multi_level_reg_convs.0.0/activate/Mul_output_0">
					<dim>-1</dim>
					<dim>96</dim>
					<dim>52</dim>
					<dim>-1</dim>
				</port>
			</output>
		</layer>
		<layer id="309" name="onnx::Conv_1520" type="Const" version="opset1">
			<data element_type="f32" shape="96, 96, 3, 3" offset="11229592" size="331776" />
			<output>
				<port id="0" precision="FP32" names="onnx::Conv_1520">
					<dim>96</dim>
					<dim>96</dim>
					<dim>3</dim>
					<dim>3</dim>
				</port>
			</output>
		</layer>
		<layer id="310" name="/bbox_head/multi_level_reg_convs.0/multi_level_reg_convs.0.1/conv/Conv/WithoutBiases" type="Convolution" version="opset1">
			<data strides="1, 1" dilations="1, 1" pads_begin="1, 1" pads_end="1, 1" auto_pad="explicit" />
			<input>
				<port id="0" precision="FP32">
					<dim>-1</dim>
					<dim>96</dim>
					<dim>52</dim>
					<dim>-1</dim>
				</port>
				<port id="1" precision="FP32">
					<dim>96</dim>
					<dim>96</dim>
					<dim>3</dim>
					<dim>3</dim>
				</port>
			</input>
			<output>
				<port id="2" precision="FP32">
					<dim>-1</dim>
					<dim>96</dim>
					<dim>52</dim>
					<dim>-1</dim>
				</port>
			</output>
		</layer>
		<layer id="311" name="Reshape_1422" type="Const" version="opset1">
			<data element_type="f32" shape="1, 96, 1, 1" offset="11561368" size="384" />
			<output>
				<port id="0" precision="FP32">
					<dim>1</dim>
					<dim>96</dim>
					<dim>1</dim>
					<dim>1</dim>
				</port>
			</output>
		</layer>
		<layer id="312" name="/bbox_head/multi_level_reg_convs.0/multi_level_reg_convs.0.1/conv/Conv" type="Add" version="opset1">
			<data auto_broadcast="numpy" />
			<input>
				<port id="0" precision="FP32">
					<dim>-1</dim>
					<dim>96</dim>
					<dim>52</dim>
					<dim>-1</dim>
				</port>
				<port id="1" precision="FP32">
					<dim>1</dim>
					<dim>96</dim>
					<dim>1</dim>
					<dim>1</dim>
				</port>
			</input>
			<output>
				<port id="2" precision="FP32" names="/bbox_head/multi_level_reg_convs.0/multi_level_reg_convs.0.1/conv/Conv_output_0">
					<dim>-1</dim>
					<dim>96</dim>
					<dim>52</dim>
					<dim>-1</dim>
				</port>
			</output>
		</layer>
		<layer id="313" name="/bbox_head/multi_level_reg_convs.0/multi_level_reg_convs.0.1/activate/Mul" type="Swish" version="opset4">
			<input>
				<port id="0" precision="FP32">
					<dim>-1</dim>
					<dim>96</dim>
					<dim>52</dim>
					<dim>-1</dim>
				</port>
			</input>
			<output>
				<port id="1" precision="FP32" names="/bbox_head/multi_level_reg_convs.0/multi_level_reg_convs.0.1/activate/Mul_output_0">
					<dim>-1</dim>
					<dim>96</dim>
					<dim>52</dim>
					<dim>-1</dim>
				</port>
			</output>
		</layer>
		<layer id="314" name="bbox_head.multi_level_conv_reg.0.weight" type="Const" version="opset1">
			<data element_type="f32" shape="4, 96, 1, 1" offset="11561752" size="1536" />
			<output>
				<port id="0" precision="FP32" names="bbox_head.multi_level_conv_reg.0.weight">
					<dim>4</dim>
					<dim>96</dim>
					<dim>1</dim>
					<dim>1</dim>
				</port>
			</output>
		</layer>
		<layer id="315" name="/bbox_head/multi_level_conv_reg.0/Conv/WithoutBiases" type="Convolution" version="opset1">
			<data strides="1, 1" dilations="1, 1" pads_begin="0, 0" pads_end="0, 0" auto_pad="explicit" />
			<input>
				<port id="0" precision="FP32">
					<dim>-1</dim>
					<dim>96</dim>
					<dim>52</dim>
					<dim>-1</dim>
				</port>
				<port id="1" precision="FP32">
					<dim>4</dim>
					<dim>96</dim>
					<dim>1</dim>
					<dim>1</dim>
				</port>
			</input>
			<output>
				<port id="2" precision="FP32">
					<dim>-1</dim>
					<dim>4</dim>
					<dim>52</dim>
					<dim>-1</dim>
				</port>
			</output>
		</layer>
		<layer id="316" name="Reshape_1454" type="Const" version="opset1">
			<data element_type="f32" shape="1, 4, 1, 1" offset="11563288" size="16" />
			<output>
				<port id="0" precision="FP32">
					<dim>1</dim>
					<dim>4</dim>
					<dim>1</dim>
					<dim>1</dim>
				</port>
			</output>
		</layer>
		<layer id="317" name="/bbox_head/multi_level_conv_reg.0/Conv" type="Add" version="opset1">
…
		<edge from-layer="433" from-port="1" to-layer="770" to-port="0" />
		<edge from-layer="434" from-port="0" to-layer="435" to-port="1" />
		<edge from-layer="435" from-port="2" to-layer="437" to-port="0" />
		<edge from-layer="436" from-port="0" to-layer="437" to-port="1" />
		<edge from-layer="437" from-port="2" to-layer="439" to-port="0" />
		<edge from-layer="438" from-port="0" to-layer="439" to-port="1" />
		<edge from-layer="439" from-port="2" to-layer="445" to-port="0" />
		<edge from-layer="440" from-port="0" to-layer="441" to-port="1" />
		<edge from-layer="441" from-port="3" to-layer="444" to-port="0" />
		<edge from-layer="442" from-port="0" to-layer="444" to-port="1" />
		<edge from-layer="443" from-port="0" to-layer="444" to-port="2" />
		<edge from-layer="444" from-port="3" to-layer="445" to-port="1" />
		<edge from-layer="445" from-port="2" to-layer="446" to-port="2" />
		<edge from-layer="446" from-port="3" to-layer="669" to-port="0" />
		<edge from-layer="446" from-port="3" to-layer="450" to-port="0" />
		<edge from-layer="447" from-port="0" to-layer="450" to-port="1" />
		<edge from-layer="448" from-port="0" to-layer="450" to-port="2" />
		<edge from-layer="449" from-port="0" to-layer="450" to-port="3" />
		<edge from-layer="450" from-port="4" to-layer="657" to-port="0" />
		<edge from-layer="451" from-port="0" to-layer="471" to-port="0" />
		<edge from-layer="452" from-port="0" to-layer="453" to-port="1" />
		<edge from-layer="453" from-port="2" to-layer="455" to-port="0" />
		<edge from-layer="454" from-port="0" to-layer="455" to-port="1" />
		<edge from-layer="455" from-port="2" to-layer="456" to-port="0" />
		<edge from-layer="456" from-port="1" to-layer="458" to-port="0" />
		<edge from-layer="457" from-port="0" to-layer="458" to-port="1" />
		<edge from-layer="458" from-port="2" to-layer="460" to-port="0" />
		<edge from-layer="459" from-port="0" to-layer="460" to-port="1" />
		<edge from-layer="460" from-port="2" to-layer="461" to-port="0" />
		<edge from-layer="461" from-port="1" to-layer="463" to-port="0" />
		<edge from-layer="462" from-port="0" to-layer="463" to-port="1" />
		<edge from-layer="463" from-port="2" to-layer="465" to-port="0" />
		<edge from-layer="464" from-port="0" to-layer="465" to-port="1" />
		<edge from-layer="465" from-port="2" to-layer="706" to-port="0" />
		<edge from-layer="465" from-port="2" to-layer="710" to-port="0" />
		<edge from-layer="465" from-port="2" to-layer="466" to-port="0" />
		<edge from-layer="466" from-port="1" to-layer="484" to-port="0" />
		<edge from-layer="466" from-port="1" to-layer="469" to-port="0" />
		<edge from-layer="467" from-port="0" to-layer="469" to-port="1" />
		<edge from-layer="468" from-port="0" to-layer="469" to-port="2" />
		<edge from-layer="469" from-port="3" to-layer="471" to-port="1" />
		<edge from-layer="470" from-port="0" to-layer="471" to-port="2" />
		<edge from-layer="471" from-port="3" to-layer="473" to-port="0" />
		<edge from-layer="472" from-port="0" to-layer="473" to-port="1" />
		<edge from-layer="473" from-port="2" to-layer="474" to-port="0" />
		<edge from-layer="474" from-port="1" to-layer="476" to-port="0" />
		<edge from-layer="475" from-port="0" to-layer="476" to-port="1" />
		<edge from-layer="476" from-port="2" to-layer="480" to-port="0" />
		<edge from-layer="476" from-port="2" to-layer="478" to-port="0" />
		<edge from-layer="477" from-port="0" to-layer="479" to-port="0" />
		<edge from-layer="478" from-port="1" to-layer="493" to-port="1" />
		<edge from-layer="478" from-port="1" to-layer="479" to-port="1" />
		<edge from-layer="479" from-port="2" to-layer="480" to-port="1" />
		<edge from-layer="480" from-port="2" to-layer="494" to-port="0" />
		<edge from-layer="481" from-port="0" to-layer="486" to-port="0" />
		<edge from-layer="482" from-port="0" to-layer="484" to-port="1" />
		<edge from-layer="483" from-port="0" to-layer="484" to-port="2" />
		<edge from-layer="484" from-port="3" to-layer="486" to-port="1" />
		<edge from-layer="485" from-port="0" to-layer="486" to-port="2" />
		<edge from-layer="486" from-port="3" to-layer="488" to-port="0" />
		<edge from-layer="487" from-port="0" to-layer="488" to-port="1" />
		<edge from-layer="488" from-port="2" to-layer="489" to-port="0" />
		<edge from-layer="489" from-port="1" to-layer="491" to-port="0" />
		<edge from-layer="490" from-port="0" to-layer="491" to-port="1" />
		<edge from-layer="491" from-port="2" to-layer="501" to-port="0" />
		<edge from-layer="491" from-port="2" to-layer="492" to-port="0" />
		<edge from-layer="492" from-port="1" to-layer="500" to-port="0" />
		<edge from-layer="492" from-port="1" to-layer="493" to-port="0" />
		<edge from-layer="493" from-port="2" to-layer="494" to-port="1" />
		<edge from-layer="493" from-port="2" to-layer="502" to-port="1" />
		<edge from-layer="494" from-port="2" to-layer="496" to-port="0" />
		<edge from-layer="495" from-port="0" to-layer="496" to-port="1" />
		<edge from-layer="496" from-port="2" to-layer="508" to-port="0" />
		<edge from-layer="496" from-port="2" to-layer="498" to-port="0" />
		<edge from-layer="497" from-port="0" to-layer="498" to-port="1" />
		<edge from-layer="498" from-port="2" to-layer="517" to-port="0" />
		<edge from-layer="499" from-port="0" to-layer="500" to-port="1" />
		<edge from-layer="500" from-port="2" to-layer="501" to-port="1" />
		<edge from-layer="501" from-port="2" to-layer="502" to-port="0" />
		<edge from-layer="502" from-port="2" to-layer="504" to-port="0" />
		<edge from-layer="503" from-port="0" to-layer="504" to-port="1" />
		<edge from-layer="504" from-port="2" to-layer="506" to-port="0" />
		<edge from-layer="504" from-port="2" to-layer="513" to-port="0" />
		<edge from-layer="505" from-port="0" to-layer="506" to-port="1" />
		<edge from-layer="506" from-port="2" to-layer="517" to-port="1" />
		<edge from-layer="507" from-port="0" to-layer="509" to-port="0" />
		<edge from-layer="508" from-port="1" to-layer="509" to-port="1" />
		<edge from-layer="509" from-port="2" to-layer="511" to-port="0" />
		<edge from-layer="510" from-port="0" to-layer="511" to-port="1" />
		<edge from-layer="511" from-port="2" to-layer="517" to-port="2" />
		<edge from-layer="512" from-port="0" to-layer="514" to-port="0" />
		<edge from-layer="513" from-port="1" to-layer="514" to-port="1" />
		<edge from-layer="514" from-port="2" to-layer="516" to-port="0" />
		<edge from-layer="515" from-port="0" to-layer="516" to-port="1" />
		<edge from-layer="516" from-port="2" to-layer="517" to-port="3" />
		<edge from-layer="517" from-port="4" to-layer="652" to-port="0" />
		<edge from-layer="518" from-port="0" to-layer="538" to-port="0" />
		<edge from-layer="519" from-port="0" to-layer="520" to-port="1" />
		<edge from-layer="520" from-port="2" to-layer="522" to-port="0" />
		<edge from-layer="521" from-port="0" to-layer="522" to-port="1" />
		<edge from-layer="522" from-port="2" to-layer="523" to-port="0" />
		<edge from-layer="523" from-port="1" to-layer="525" to-port="0" />
		<edge from-layer="524" from-port="0" to-layer="525" to-port="1" />
		<edge from-layer="525" from-port="2" to-layer="527" to-port="0" />
		<edge from-layer="526" from-port="0" to-layer="527" to-port="1" />
		<edge from-layer="527" from-port="2" to-layer="528" to-port="0" />
		<edge from-layer="528" from-port="1" to-layer="530" to-port="0" />
		<edge from-layer="529" from-port="0" to-layer="530" to-port="1" />
		<edge from-layer="530" from-port="2" to-layer="532" to-port="0" />
		<edge from-layer="531" from-port="0" to-layer="532" to-port="1" />
		<edge from-layer="532" from-port="2" to-layer="717" to-port="0" />
		<edge from-layer="532" from-port="2" to-layer="721" to-port="0" />
		<edge from-layer="532" from-port="2" to-layer="533" to-port="0" />
		<edge from-layer="533" from-port="1" to-layer="536" to-port="0" />
		<edge from-layer="533" from-port="1" to-layer="551" to-port="0" />
		<edge from-layer="534" from-port="0" to-layer="536" to-port="1" />
		<edge from-layer="535" from-port="0" to-layer="536" to-port="2" />
		<edge from-layer="536" from-port="3" to-layer="538" to-port="1" />
		<edge from-layer="537" from-port="0" to-layer="538" to-port="2" />
		<edge from-layer="538" from-port="3" to-layer="540" to-port="0" />
		<edge from-layer="539" from-port="0" to-layer="540" to-port="1" />
		<edge from-layer="540" from-port="2" to-layer="541" to-port="0" />
		<edge from-layer="541" from-port="1" to-layer="543" to-port="0" />
		<edge from-layer="542" from-port="0" to-layer="543" to-port="1" />
		<edge from-layer="543" from-port="2" to-layer="547" to-port="0" />
		<edge from-layer="543" from-port="2" to-layer="545" to-port="0" />
		<edge from-layer="544" from-port="0" to-layer="546" to-port="0" />
		<edge from-layer="545" from-port="1" to-layer="560" to-port="1" />
		<edge from-layer="545" from-port="1" to-layer="546" to-port="1" />
		<edge from-layer="546" from-port="2" to-layer="547" to-port="1" />
		<edge from-layer="547" from-port="2" to-layer="561" to-port="0" />
		<edge from-layer="548" from-port="0" to-layer="553" to-port="0" />
		<edge from-layer="549" from-port="0" to-layer="551" to-port="1" />
		<edge from-layer="550" from-port="0" to-layer="551" to-port="2" />
		<edge from-layer="551" from-port="3" to-layer="553" to-port="1" />
		<edge from-layer="552" from-port="0" to-layer="553" to-port="2" />
		<edge from-layer="553" from-port="3" to-layer="555" to-port="0" />
		<edge from-layer="554" from-port="0" to-layer="555" to-port="1" />
		<edge from-layer="555" from-port="2" to-layer="556" to-port="0" />
		<edge from-layer="556" from-port="1" to-layer="558" to-port="0" />
		<edge from-layer="557" from-port="0" to-layer="558" to-port="1" />
		<edge from-layer="558" from-port="2" to-layer="559" to-port="0" />
		<edge from-layer="558" from-port="2" to-layer="568" to-port="0" />
		<edge from-layer="559" from-port="1" to-layer="560" to-port="0" />
		<edge from-layer="559" from-port="1" to-layer="567" to-port="0" />
		<edge from-layer="560" from-port="2" to-layer="569" to-port="1" />
		<edge from-layer="560" from-port="2" to-layer="561" to-port="1" />
		<edge from-layer="561" from-port="2" to-layer="563" to-port="0" />
		<edge from-layer="562" from-port="0" to-layer="563" to-port="1" />
		<edge from-layer="563" from-port="2" to-layer="565" to-port="0" />
		<edge from-layer="563" from-port="2" to-layer="575" to-port="0" />
		<edge from-layer="564" from-port="0" to-layer="565" to-port="1" />
		<edge from-layer="565" from-port="2" to-layer="584" to-port="0" />
		<edge from-layer="566" from-port="0" to-layer="567" to-port="1" />
		<edge from-layer="567" from-port="2" to-layer="568" to-port="1" />
		<edge from-layer="568" from-port="2" to-layer="569" to-port="0" />
		<edge from-layer="569" from-port="2" to-layer="571" to-port="0" />
		<edge from-layer="570" from-port="0" to-layer="571" to-port="1" />
		<edge from-layer="571" from-port="2" to-layer="573" to-port="0" />
		<edge from-layer="571" from-port="2" to-layer="580" to-port="0" />
		<edge from-layer="572" from-port="0" to-layer="573" to-port="1" />
		<edge from-layer="573" from-port="2" to-layer="584" to-port="1" />
		<edge from-layer="574" from-port="0" to-layer="576" to-port="0" />
		<edge from-layer="575" from-port="1" to-layer="576" to-port="1" />
		<edge from-layer="576" from-port="2" to-layer="578" to-port="0" />
		<edge from-layer="577" from-port="0" to-layer="578" to-port="1" />
		<edge from-layer="578" from-port="2" to-layer="584" to-port="2" />
		<edge from-layer="579" from-port="0" to-layer="581" to-port="0" />
		<edge from-layer="580" from-port="1" to-layer="581" to-port="1" />
		<edge from-layer="581" from-port="2" to-layer="583" to-port="0" />
		<edge from-layer="582" from-port="0" to-layer="583" to-port="1" />
		<edge from-layer="583" from-port="2" to-layer="584" to-port="3" />
		<edge from-layer="584" from-port="4" to-layer="652" to-port="1" />
		<edge from-layer="585" from-port="0" to-layer="605" to-port="0" />
		<edge from-layer="586" from-port="0" to-layer="587" to-port="1" />
		<edge from-layer="587" from-port="2" to-layer="589" to-port="0" />
		<edge from-layer="588" from-port="0" to-layer="589" to-port="1" />
		<edge from-layer="589" from-port="2" to-layer="590" to-port="0" />
		<edge from-layer="590" from-port="1" to-layer="592" to-port="0" />
		<edge from-layer="591" from-port="0" to-layer="592" to-port="1" />
		<edge from-layer="592" from-port="2" to-layer="594" to-port="0" />
		<edge from-layer="593" from-port="0" to-layer="594" to-port="1" />
		<edge from-layer="594" from-port="2" to-layer="595" to-port="0" />
		<edge from-layer="595" from-port="1" to-layer="597" to-port="0" />
		<edge from-layer="596" from-port="0" to-layer="597" to-port="1" />
		<edge from-layer="597" from-port="2" to-layer="599" to-port="0" />
		<edge from-layer="598" from-port="0" to-layer="599" to-port="1" />
		<edge from-layer="599" from-port="2" to-layer="600" to-port="0" />
		<edge from-layer="599" from-port="2" to-layer="728" to-port="0" />
		<edge from-layer="599" from-port="2" to-layer="732" to-port="0" />
		<edge from-layer="600" from-port="1" to-layer="603" to-port="0" />
		<edge from-layer="600" from-port="1" to-layer="618" to-port="0" />
		<edge from-layer="601" from-port="0" to-layer="603" to-port="1" />
		<edge from-layer="602" from-port="0" to-layer="603" to-port="2" />
		<edge from-layer="603" from-port="3" to-layer="605" to-port="1" />
		<edge from-layer="604" from-port="0" to-layer="605" to-port="2" />
		<edge from-layer="605" from-port="3" to-layer="607" to-port="0" />
		<edge from-layer="606" from-port="0" to-layer="607" to-port="1" />
		<edge from-layer="607" from-port="2" to-layer="608" to-port="0" />
		<edge from-layer="608" from-port="1" to-layer="610" to-port="0" />
		<edge from-layer="609" from-port="0" to-layer="610" to-port="1" />
		<edge from-layer="610" from-port="2" to-layer="612" to-port="0" />
		<edge from-layer="610" from-port="2" to-layer="614" to-port="0" />
		<edge from-layer="611" from-port="0" to-layer="613" to-port="0" />
		<edge from-layer="612" from-port="1" to-layer="627" to-port="1" />
		<edge from-layer="612" from-port="1" to-layer="613" to-port="1" />
		<edge from-layer="613" from-port="2" to-layer="614" to-port="1" />
		<edge from-layer="614" from-port="2" to-layer="628" to-port="0" />
		<edge from-layer="615" from-port="0" to-layer="620" to-port="0" />
		<edge from-layer="616" from-port="0" to-layer="618" to-port="1" />
		<edge from-layer="617" from-port="0" to-layer="618" to-port="2" />
		<edge from-layer="618" from-port="3" to-layer="620" to-port="1" />
		<edge from-layer="619" from-port="0" to-layer="620" to-port="2" />
		<edge from-layer="620" from-port="3" to-layer="622" to-port="0" />
		<edge from-layer="621" from-port="0" to-layer="622" to-port="1" />
		<edge from-layer="622" from-port="2" to-layer="623" to-port="0" />
		<edge from-layer="623" from-port="1" to-layer="625" to-port="0" />
		<edge from-layer="624" from-port="0" to-layer="625" to-port="1" />
		<edge from-layer="625" from-port="2" to-layer="626" to-port="0" />
		<edge from-layer="625" from-port="2" to-layer="635" to-port="0" />
		<edge from-layer="626" from-port="1" to-layer="627" to-port="0" />
		<edge from-layer="626" from-port="1" to-layer="634" to-port="0" />
		<edge from-layer="627" from-port="2" to-layer="636" to-port="1" />
		<edge from-layer="627" from-port="2" to-layer="628" to-port="1" />
		<edge from-layer="628" from-port="2" to-layer="630" to-port="0" />
		<edge from-layer="629" from-port="0" to-layer="630" to-port="1" />
		<edge from-layer="630" from-port="2" to-layer="642" to-port="0" />
		<edge from-layer="630" from-port="2" to-layer="632" to-port="0" />
		<edge from-layer="631" from-port="0" to-layer="632" to-port="1" />
		<edge from-layer="632" from-port="2" to-layer="651" to-port="0" />
		<edge from-layer="633" from-port="0" to-layer="634" to-port="1" />
		<edge from-layer="634" from-port="2" to-layer="635" to-port="1" />
		<edge from-layer="635" from-port="2" to-layer="636" to-port="0" />
		<edge from-layer="636" from-port="2" to-layer="638" to-port="0" />
		<edge from-layer="637" from-port="0" to-layer="638" to-port="1" />
		<edge from-layer="638" from-port="2" to-layer="640" to-port="0" />
		<edge from-layer="638" from-port="2" to-layer="647" to-port="0" />
		<edge from-layer="639" from-port="0" to-layer="640" to-port="1" />
		<edge from-layer="640" from-port="2" to-layer="651" to-port="1" />
		<edge from-layer="641" from-port="0" to-layer="643" to-port="0" />
		<edge from-layer="642" from-port="1" to-layer="643" to-port="1" />
		<edge from-layer="643" from-port="2" to-layer="645" to-port="0" />
		<edge from-layer="644" from-port="0" to-layer="645" to-port="1" />
		<edge from-layer="645" from-port="2" to-layer="651" to-port="2" />
		<edge from-layer="646" from-port="0" to-layer="648" to-port="0" />
		<edge from-layer="647" from-port="1" to-layer="648" to-port="1" />
		<edge from-layer="648" from-port="2" to-layer="650" to-port="0" />
		<edge from-layer="649" from-port="0" to-layer="650" to-port="1" />
		<edge from-layer="650" from-port="2" to-layer="651" to-port="3" />
		<edge from-layer="651" from-port="4" to-layer="652" to-port="2" />
		<edge from-layer="652" from-port="3" to-layer="661" to-port="0" />
		<edge from-layer="652" from-port="3" to-layer="656" to-port="0" />
		<edge from-layer="653" from-port="0" to-layer="656" to-port="1" />
		<edge from-layer="654" from-port="0" to-layer="656" to-port="2" />
		<edge from-layer="655" from-port="0" to-layer="656" to-port="3" />
		<edge from-layer="656" from-port="4" to-layer="671" to-port="1" />
		<edge from-layer="656" from-port="4" to-layer="657" to-port="1" />
		<edge from-layer="657" from-port="2" to-layer="662" to-port="0" />
		<edge from-layer="658" from-port="0" to-layer="661" to-port="1" />
		<edge from-layer="659" from-port="0" to-layer="661" to-port="2" />
		<edge from-layer="660" from-port="0" to-layer="661" to-port="3" />
		<edge from-layer="661" from-port="4" to-layer="662" to-port="1" />
		<edge from-layer="662" from-port="2" to-layer="665" to-port="0" />
		<edge from-layer="662" from-port="2" to-layer="681" to-port="0" />
		<edge from-layer="663" from-port="0" to-layer="673" to-port="1" />
		<edge from-layer="663" from-port="0" to-layer="860" to-port="1" />
		<edge from-layer="663" from-port="0" to-layer="665" to-port="1" />
		<edge from-layer="664" from-port="0" to-layer="665" to-port="2" />
		<edge from-layer="665" from-port="3" to-layer="689" to-port="0" />
		<edge from-layer="665" from-port="3" to-layer="676" to-port="0" />
		<edge from-layer="666" from-port="0" to-layer="669" to-port="1" />
		<edge from-layer="667" from-port="0" to-layer="669" to-port="2" />
		<edge from-layer="668" from-port="0" to-layer="669" to-port="3" />
		<edge from-layer="669" from-port="4" to-layer="670" to-port="0" />
		<edge from-layer="670" from-port="1" to-layer="671" to-port="0" />
		<edge from-layer="671" from-port="2" to-layer="673" to-port="0" />
		<edge from-layer="671" from-port="2" to-layer="683" to-port="0" />
		<edge from-layer="672" from-port="0" to-layer="673" to-port="2" />
		<edge from-layer="673" from-port="3" to-layer="675" to-port="0" />
		<edge from-layer="674" from-port="0" to-layer="675" to-port="1" />
		<edge from-layer="675" from-port="2" to-layer="676" to-port="1" />
		<edge from-layer="675" from-port="2" to-layer="689" to-port="1" />
		<edge from-layer="676" from-port="2" to-layer="678" to-port="0" />
		<edge from-layer="677" from-port="0" to-layer="678" to-port="1" />
		<edge from-layer="678" from-port="2" to-layer="695" to-port="0" />
		<edge from-layer="679" from-port="0" to-layer="868" to-port="1" />
		<edge from-layer="679" from-port="0" to-layer="681" to-port="1" />
		<edge from-layer="679" from-port="0" to-layer="683" to-port="1" />
		<edge from-layer="680" from-port="0" to-layer="681" to-port="2" />
		<edge from-layer="681" from-port="3" to-layer="692" to-port="0" />
		<edge from-layer="681" from-port="3" to-layer="686" to-port="0" />
		<edge from-layer="682" from-port="0" to-layer="683" to-port="2" />
		<edge from-layer="683" from-port="3" to-layer="685" to-port="0" />
		<edge from-layer="684" from-port="0" to-layer="685" to-port="1" />
		<edge from-layer="685" from-port="2" to-layer="692" to-port="1" />
		<edge from-layer="685" from-port="2" to-layer="686" to-port="1" />
		<edge from-layer="686" from-port="2" to-layer="688" to-port="0" />
		<edge from-layer="687" from-port="0" to-layer="688" to-port="1" />
		<edge from-layer="688" from-port="2" to-layer="695" to-port="1" />
		<edge from-layer="689" from-port="2" to-layer="691" to-port="0" />
		<edge from-layer="690" from-port="0" to-layer="691" to-port="1" />
		<edge from-layer="691" from-port="2" to-layer="695" to-port="2" />
		<edge from-layer="692" from-port="2" to-layer="694" to-port="0" />
		<edge from-layer="693" from-port="0" to-layer="694" to-port="1" />
		<edge from-layer="694" from-port="2" to-layer="695" to-port="3" />
		<edge from-layer="695" from-port="4" to-layer="705" to-port="0" />
		<edge from-layer="695" from-port="4" to-layer="696" to-port="0" />
		<edge from-layer="696" from-port="1" to-layer="814" to-port="0" />
		<edge from-layer="696" from-port="1" to-layer="822" to-port="0" />
		<edge from-layer="696" from-port="1" to-layer="700" to-port="0" />
		<edge from-layer="697" from-port="0" to-layer="700" to-port="1" />
		<edge from-layer="698" from-port="0" to-layer="700" to-port="2" />
		<edge from-layer="699" from-port="0" to-layer="700" to-port="3" />
		<edge from-layer="700" from-port="4" to-layer="702" to-port="0" />
		<edge from-layer="701" from-port="0" to-layer="702" to-port="1" />
		<edge from-layer="702" from-port="2" to-layer="704" to-port="0" />
		<edge from-layer="703" from-port="0" to-layer="704" to-port="1" />
		<edge from-layer="704" from-port="2" to-layer="705" to-port="1" />
		<edge from-layer="705" from-port="2" to-layer="818" to-port="0" />
		<edge from-layer="706" from-port="1" to-layer="709" to-port="0" />
		<edge from-layer="707" from-port="0" to-layer="709" to-port="1" />
		<edge from-layer="708" from-port="0" to-layer="709" to-port="2" />
		<edge from-layer="709" from-port="3" to-layer="710" to-port="1" />
		<edge from-layer="710" from-port="2" to-layer="716" to-port="0" />
		<edge from-layer="711" from-port="0" to-layer="712" to-port="1" />
		<edge from-layer="712" from-port="3" to-layer="715" to-port="0" />
		<edge from-layer="713" from-port="0" to-layer="715" to-port="1" />
		<edge from-layer="714" from-port="0" to-layer="715" to-port="2" />
		<edge from-layer="715" from-port="3" to-layer="716" to-port="1" />
		<edge from-layer="716" from-port="2" to-layer="739" to-port="0" />
		<edge from-layer="717" from-port="1" to-layer="720" to-port="0" />
		<edge from-layer="718" from-port="0" to-layer="720" to-port="1" />
		<edge from-layer="719" from-port="0" to-layer="720" to-port="2" />
		<edge from-layer="720" from-port="3" to-layer="721" to-port="1" />
		<edge from-layer="721" from-port="2" to-layer="727" to-port="0" />
		<edge from-layer="722" from-port="0" to-layer="723" to-port="1" />
		<edge from-layer="723" from-port="3" to-layer="726" to-port="0" />
		<edge from-layer="724" from-port="0" to-layer="726" to-port="1" />
		<edge from-layer="725" from-port="0" to-layer="726" to-port="2" />
		<edge from-layer="726" from-port="3" to-layer="727" to-port="1" />
		<edge from-layer="727" from-port="2" to-layer="739" to-port="1" />
		<edge from-layer="728" from-port="1" to-layer="731" to-port="0" />
		<edge from-layer="729" from-port="0" to-layer="731" to-port="1" />
		<edge from-layer="730" from-port="0" to-layer="731" to-port="2" />
		<edge from-layer="731" from-port="3" to-layer="732" to-port="1" />
		<edge from-layer="732" from-port="2" to-layer="738" to-port="0" />
		<edge from-layer="733" from-port="0" to-layer="734" to-port="1" />
		<edge from-layer="734" from-port="3" to-layer="737" to-port="0" />
		<edge from-layer="735" from-port="0" to-layer="737" to-port="1" />
		<edge from-layer="736" from-port="0" to-layer="737" to-port="2" />
		<edge from-layer="737" from-port="3" to-layer="738" to-port="1" />
		<edge from-layer="738" from-port="2" to-layer="739" to-port="2" />
		<edge from-layer="739" from-port="3" to-layer="740" to-port="0" />
		<edge from-layer="740" from-port="1" to-layer="787" to-port="0" />
		<edge from-layer="741" from-port="0" to-layer="742" to-port="1" />
		<edge from-layer="742" from-port="2" to-layer="744" to-port="0" />
		<edge from-layer="743" from-port="0" to-layer="744" to-port="1" />
		<edge from-layer="744" from-port="2" to-layer="749" to-port="0" />
		<edge from-layer="744" from-port="2" to-layer="745" to-port="0" />
		<edge from-layer="745" from-port="1" to-layer="748" to-port="0" />
		<edge from-layer="746" from-port="0" to-layer="748" to-port="1" />
		<edge from-layer="747" from-port="0" to-layer="748" to-port="2" />
		<edge from-layer="748" from-port="3" to-layer="749" to-port="1" />
		<edge from-layer="749" from-port="2" to-layer="754" to-port="0" />
		<edge from-layer="750" from-port="0" to-layer="751" to-port="1" />
		<edge from-layer="751" from-port="3" to-layer="753" to-port="0" />
		<edge from-layer="752" from-port="0" to-layer="753" to-port="1" />
		<edge from-layer="753" from-port="2" to-layer="754" to-port="1" />
		<edge from-layer="754" from-port="2" to-layer="783" to-port="0" />
		<edge from-layer="755" from-port="0" to-layer="756" to-port="1" />
		<edge from-layer="756" from-port="2" to-layer="758" to-port="0" />
		<edge from-layer="757" from-port="0" to-layer="758" to-port="1" />
		<edge from-layer="758" from-port="2" to-layer="763" to-port="0" />
		<edge from-layer="758" from-port="2" to-layer="759" to-port="0" />
		<edge from-layer="759" from-port="1" to-layer="762" to-port="0" />
		<edge from-layer="760" from-port="0" to-layer="762" to-port="1" />
		<edge from-layer="761" from-port="0" to-layer="762" to-port="2" />
		<edge from-layer="762" from-port="3" to-layer="763" to-port="1" />
		<edge from-layer="763" from-port="2" to-layer="768" to-port="0" />
		<edge from-layer="764" from-port="0" to-layer="765" to-port="1" />
		<edge from-layer="765" from-port="3" to-layer="767" to-port="0" />
		<edge from-layer="766" from-port="0" to-layer="767" to-port="1" />
		<edge from-layer="767" from-port="2" to-layer="768" to-port="1" />
		<edge from-layer="768" from-port="2" to-layer="783" to-port="1" />
		<edge from-layer="769" from-port="0" to-layer="770" to-port="1" />
		<edge from-layer="770" from-port="2" to-layer="772" to-port="0" />
		<edge from-layer="771" from-port="0" to-layer="772" to-port="1" />
		<edge from-layer="772" from-port="2" to-layer="773" to-port="0" />
		<edge from-layer="772" from-port="2" to-layer="777" to-port="0" />
		<edge from-layer="773" from-port="1" to-layer="776" to-port="0" />
		<edge from-layer="774" from-port="0" to-layer="776" to-port="1" />
		<edge from-layer="775" from-port="0" to-layer="776" to-port="2" />
		<edge from-layer="776" from-port="3" to-layer="777" to-port="1" />
		<edge from-layer="777" from-port="2" to-layer="782" to-port="0" />
		<edge from-layer="778" from-port="0" to-layer="779" to-port="1" />
		<edge from-layer="779" from-port="3" to-layer="781" to-port="0" />
		<edge from-layer="780" from-port="0" to-layer="781" to-port="1" />
		<edge from-layer="781" from-port="2" to-layer="782" to-port="1" />
		<edge from-layer="782" from-port="2" to-layer="783" to-port="2" />
		<edge from-layer="783" from-port="3" to-layer="784" to-port="0" />
		<edge from-layer="784" from-port="1" to-layer="786" to-port="0" />
		<edge from-layer="785" from-port="0" to-layer="786" to-port="1" />
		<edge from-layer="786" from-port="2" to-layer="787" to-port="1" />
		<edge from-layer="787" from-port="2" to-layer="836" to-port="0" />
		<edge from-layer="787" from-port="2" to-layer="804" to-port="0" />
		<edge from-layer="787" from-port="2" to-layer="789" to-port="0" />
		<edge from-layer="788" from-port="0" to-layer="789" to-port="1" />
		<edge from-layer="789" from-port="2" to-layer="791" to-port="0" />
		<edge from-layer="789" from-port="2" to-layer="802" to-port="0" />
		<edge from-layer="790" from-port="0" to-layer="795" to-port="0" />
		<edge from-layer="791" from-port="1" to-layer="794" to-port="0" />
		<edge from-layer="792" from-port="0" to-layer="794" to-port="1" />
		<edge from-layer="793" from-port="0" to-layer="794" to-port="2" />
		<edge from-layer="794" from-port="3" to-layer="795" to-port="1" />
		<edge from-layer="794" from-port="3" to-layer="797" to-port="2" />
		<edge from-layer="795" from-port="2" to-layer="797" to-port="0" />
		<edge from-layer="796" from-port="0" to-layer="797" to-port="1" />
		<edge from-layer="797" from-port="3" to-layer="799" to-port="0" />
		<edge from-layer="798" from-port="0" to-layer="799" to-port="1" />
		<edge from-layer="799" from-port="2" to-layer="801" to-port="0" />
		<edge from-layer="800" from-port="0" to-layer="801" to-port="1" />
		<edge from-layer="801" from-port="2" to-layer="802" to-port="1" />
		<edge from-layer="802" from-port="3" to-layer="841" to-port="0" />
		<edge from-layer="802" from-port="3" to-layer="816" to-port="0" />
		<edge from-layer="803" from-port="0" to-layer="809" to-port="0" />
		<edge from-layer="804" from-port="1" to-layer="950" to-port="0" />
		<edge from-layer="804" from-port="1" to-layer="831" to-port="0" />
		<edge from-layer="804" from-port="1" to-layer="839" to-port="0" />
		<edge from-layer="804" from-port="1" to-layer="847" to-port="0" />
		<edge from-layer="804" from-port="1" to-layer="874" to-port="0" />
		<edge from-layer="804" from-port="1" to-layer="807" to-port="0" />
		<edge from-layer="805" from-port="0" to-layer="807" to-port="1" />
		<edge from-layer="806" from-port="0" to-layer="950" to-port="2" />
		<edge from-layer="806" from-port="0" to-layer="874" to-port="2" />
		<edge from-layer="806" from-port="0" to-layer="807" to-port="2" />
		<edge from-layer="807" from-port="3" to-layer="1001" to-port="1" />
		<edge from-layer="807" from-port="3" to-layer="863" to-port="1" />
		<edge from-layer="807" from-port="3" to-layer="809" to-port="1" />
		<edge from-layer="808" from-port="0" to-layer="809" to-port="2" />
		<edge from-layer="809" from-port="3" to-layer="811" to-port="0" />
		<edge from-layer="810" from-port="0" to-layer="811" to-port="1" />
		<edge from-layer="811" from-port="2" to-layer="815" to-port="0" />
		<edge from-layer="811" from-port="2" to-layer="840" to-port="0" />
		<edge from-layer="812" from-port="0" to-layer="814" to-port="1" />
		<edge from-layer="813" from-port="0" to-layer="814" to-port="2" />
		<edge from-layer="814" from-port="3" to-layer="815" to-port="1" />
		<edge from-layer="815" from-port="2" to-layer="816" to-port="1" />
		<edge from-layer="816" from-port="2" to-layer="818" to-port="1" />
		<edge from-layer="816" from-port="2" to-layer="825" to-port="0" />
		<edge from-layer="817" from-port="0" to-layer="818" to-port="2" />
		<edge from-layer="818" from-port="3" to-layer="824" to-port="0" />
		<edge from-layer="819" from-port="0" to-layer="823" to-port="0" />
		<edge from-layer="820" from-port="0" to-layer="822" to-port="1" />
		<edge from-layer="821" from-port="0" to-layer="822" to-port="2" />
		<edge from-layer="822" from-port="3" to-layer="826" to-port="1" />
		<edge from-layer="822" from-port="3" to-layer="823" to-port="1" />
		<edge from-layer="823" from-port="2" to-layer="824" to-port="1" />
		<edge from-layer="824" from-port="2" to-layer="827" to-port="0" />
		<edge from-layer="825" from-port="1" to-layer="826" to-port="0" />
		<edge from-layer="826" from-port="2" to-layer="827" to-port="1" />
		<edge from-layer="827" from-port="2" to-layer="883" to-port="0" />
		<edge from-layer="827" from-port="2" to-layer="892" to-port="0" />
		<edge from-layer="827" from-port="2" to-layer="858" to-port="0" />
		<edge from-layer="828" from-port="0" to-layer="831" to-port="1" />
		<edge from-layer="829" from-port="0" to-layer="831" to-port="2" />
		<edge from-layer="830" from-port="0" to-layer="831" to-port="3" />
		<edge from-layer="831" from-port="4" to-layer="833" to-port="0" />
		<edge from-layer="832" from-port="0" to-layer="833" to-port="1" />
		<edge from-layer="833" from-port="2" to-layer="835" to-port="0" />
		<edge from-layer="834" from-port="0" to-layer="835" to-port="1" />
		<edge from-layer="835" from-port="2" to-layer="836" to-port="1" />
		<edge from-layer="836" from-port="2" to-layer="843" to-port="0" />
		<edge from-layer="837" from-port="0" to-layer="839" to-port="1" />
		<edge from-layer="838" from-port="0" to-layer="839" to-port="2" />
		<edge from-layer="839" from-port="3" to-layer="840" to-port="1" />
		<edge from-layer="840" from-port="2" to-layer="841" to-port="1" />
		<edge from-layer="841" from-port="2" to-layer="850" to-port="0" />
		<edge from-layer="841" from-port="2" to-layer="843" to-port="1" />
		<edge from-layer="842" from-port="0" to-layer="843" to-port="2" />
		<edge from-layer="843" from-port="3" to-layer="849" to-port="0" />
		<edge from-layer="844" from-port="0" to-layer="848" to-port="0" />
		<edge from-layer="845" from-port="0" to-layer="847" to-port="1" />
		<edge from-layer="846" from-port="0" to-layer="847" to-port="2" />
		<edge from-layer="847" from-port="3" to-layer="851" to-port="1" />
		<edge from-layer="847" from-port="3" to-layer="848" to-port="1" />
		<edge from-layer="848" from-port="2" to-layer="849" to-port="1" />
		<edge from-layer="849" from-port="2" to-layer="852" to-port="0" />
		<edge from-layer="850" from-port="1" to-layer="851" to-port="0" />
		<edge from-layer="851" from-port="2" to-layer="852" to-port="1" />
		<edge from-layer="852" from-port="2" to-layer="913" to-port="0" />
		<edge from-layer="852" from-port="2" to-layer="854" to-port="0" />
		<edge from-layer="853" from-port="0" to-layer="854" to-port="1" />
		<edge from-layer="854" from-port="2" to-layer="924" to-port="0" />
		<edge from-layer="854" from-port="2" to-layer="858" to-port="1" />
		<edge from-layer="855" from-port="0" to-layer="858" to-port="2" />
		<edge from-layer="856" from-port="0" to-layer="858" to-port="3" />
		<edge from-layer="857" from-port="0" to-layer="858" to-port="4" />
		<edge from-layer="858" from-port="5" to-layer="895" to-port="0" />
		<edge from-layer="858" from-port="5" to-layer="860" to-port="0" />
		<edge from-layer="858" from-port="5" to-layer="868" to-port="0" />
		<edge from-layer="859" from-port="0" to-layer="860" to-port="2" />
		<edge from-layer="860" from-port="3" to-layer="899" to-port="0" />
		<edge from-layer="860" from-port="3" to-layer="934" to-port="0" />
		<edge from-layer="860" from-port="3" to-layer="866" to-port="0" />
		<edge from-layer="861" from-port="0" to-layer="863" to-port="0" />
		<edge from-layer="862" from-port="0" to-layer="863" to-port="2" />
		<edge from-layer="863" from-port="3" to-layer="865" to-port="0" />
		<edge from-layer="864" from-port="0" to-layer="865" to-port="1" />
		<edge from-layer="865" from-port="2" to-layer="866" to-port="1" />
		<edge from-layer="866" from-port="2" to-layer="879" to-port="0" />
		<edge from-layer="866" from-port="2" to-layer="882" to-port="0" />
		<edge from-layer="867" from-port="0" to-layer="868" to-port="2" />
		<edge from-layer="868" from-port="3" to-layer="870" to-port="0" />
		<edge from-layer="868" from-port="3" to-layer="928" to-port="0" />
		<edge from-layer="869" from-port="0" to-layer="870" to-port="1" />
		<edge from-layer="870" from-port="2" to-layer="872" to-port="0" />
		<edge from-layer="871" from-port="0" to-layer="872" to-port="1" />
		<edge from-layer="872" from-port="2" to-layer="877" to-port="0" />
		<edge from-layer="873" from-port="0" to-layer="874" to-port="1" />
		<edge from-layer="874" from-port="3" to-layer="876" to-port="0" />
		<edge from-layer="875" from-port="0" to-layer="876" to-port="1" />
		<edge from-layer="876" from-port="2" to-layer="877" to-port="1" />
		<edge from-layer="877" from-port="2" to-layer="879" to-port="1" />
		<edge from-layer="878" from-port="0" to-layer="879" to-port="2" />
		<edge from-layer="879" from-port="3" to-layer="964" to-port="0" />
		<edge from-layer="880" from-port="0" to-layer="963" to-port="0" />
		<edge from-layer="881" from-port="0" to-layer="882" to-port="1" />
		<edge from-layer="882" from-port="2" to-layer="956" to-port="0" />
		<edge from-layer="883" from-port="1" to-layer="887" to-port="0" />
		<edge from-layer="883" from-port="1" to-layer="906" to-port="0" />
		<edge from-layer="883" from-port="1" to-layer="898" to-port="0" />
		<edge from-layer="884" from-port="0" to-layer="887" to-port="1" />
		<edge from-layer="885" from-port="0" to-layer="887" to-port="2" />
		<edge from-layer="886" from-port="0" to-layer="887" to-port="3" />
		<edge from-layer="887" from-port="4" to-layer="889" to-port="0" />
		<edge from-layer="888" from-port="0" to-layer="889" to-port="1" />
		<edge from-layer="889" from-port="2" to-layer="891" to-port="0" />
		<edge from-layer="890" from-port="0" to-layer="891" to-port="1" />
		<edge from-layer="891" from-port="2" to-layer="892" to-port="1" />
		<edge from-layer="892" from-port="2" to-layer="902" to-port="0" />
		<edge from-layer="893" from-port="0" to-layer="895" to-port="1" />
		<edge from-layer="894" from-port="0" to-layer="895" to-port="2" />
		<edge from-layer="895" from-port="3" to-layer="900" to-port="0" />
		<edge from-layer="895" from-port="3" to-layer="929" to-port="0" />
		<edge from-layer="896" from-port="0" to-layer="898" to-port="1" />
		<edge from-layer="897" from-port="0" to-layer="898" to-port="2" />
		<edge from-layer="898" from-port="3" to-layer="899" to-port="1" />
		<edge from-layer="899" from-port="2" to-layer="900" to-port="1" />
		<edge from-layer="900" from-port="2" to-layer="909" to-port="0" />
		<edge from-layer="900" from-port="2" to-layer="902" to-port="1" />
		<edge from-layer="901" from-port="0" to-layer="902" to-port="2" />
		<edge from-layer="902" from-port="3" to-layer="908" to-port="0" />
		<edge from-layer="903" from-port="0" to-layer="907" to-port="0" />
		<edge from-layer="904" from-port="0" to-layer="906" to-port="1" />
		<edge from-layer="905" from-port="0" to-layer="906" to-port="2" />
		<edge from-layer="906" from-port="3" to-layer="910" to-port="1" />
		<edge from-layer="906" from-port="3" to-layer="907" to-port="1" />
		<edge from-layer="907" from-port="2" to-layer="908" to-port="1" />
		<edge from-layer="908" from-port="2" to-layer="911" to-port="0" />
		<edge from-layer="909" from-port="1" to-layer="910" to-port="0" />
		<edge from-layer="910" from-port="2" to-layer="911" to-port="1" />
		<edge from-layer="911" from-port="2" to-layer="944" to-port="0" />
		<edge from-layer="912" from-port="0" to-layer="913" to-port="1" />
		<edge from-layer="913" from-port="2" to-layer="923" to-port="0" />
		<edge from-layer="913" from-port="2" to-layer="914" to-port="0" />
		<edge from-layer="914" from-port="1" to-layer="918" to-port="0" />
		<edge from-layer="915" from-port="0" to-layer="918" to-port="1" />
		<edge from-layer="916" from-port="0" to-layer="918" to-port="2" />
		<edge from-layer="917" from-port="0" to-layer="918" to-port="3" />
		<edge from-layer="918" from-port="4" to-layer="920" to-port="0" />
		<edge from-layer="919" from-port="0" to-layer="920" to-port="1" />
		<edge from-layer="920" from-port="2" to-layer="922" to-port="0" />
		<edge from-layer="921" from-port="0" to-layer="922" to-port="1" />
		<edge from-layer="922" from-port="2" to-layer="923" to-port="1" />
		<edge from-layer="923" from-port="2" to-layer="937" to-port="0" />
		<edge from-layer="924" from-port="1" to-layer="932" to-port="0" />
		<edge from-layer="924" from-port="1" to-layer="927" to-port="0" />
		<edge from-layer="925" from-port="0" to-layer="927" to-port="1" />
		<edge from-layer="926" from-port="0" to-layer="927" to-port="2" />
		<edge from-layer="927" from-port="3" to-layer="933" to-port="0" />
		<edge from-layer="927" from-port="3" to-layer="928" to-port="1" />
		<edge from-layer="928" from-port="2" to-layer="929" to-port="1" />
		<edge from-layer="929" from-port="2" to-layer="935" to-port="0" />
		<edge from-layer="930" from-port="0" to-layer="932" to-port="1" />
		<edge from-layer="931" from-port="0" to-layer="932" to-port="2" />
		<edge from-layer="932" from-port="3" to-layer="933" to-port="1" />
		<edge from-layer="933" from-port="2" to-layer="934" to-port="1" />
		<edge from-layer="934" from-port="2" to-layer="935" to-port="1" />
		<edge from-layer="935" from-port="2" to-layer="937" to-port="1" />
		<edge from-layer="935" from-port="2" to-layer="940" to-port="0" />
		<edge from-layer="936" from-port="0" to-layer="937" to-port="2" />
		<edge from-layer="937" from-port="3" to-layer="939" to-port="0" />
		<edge from-layer="938" from-port="0" to-layer="939" to-port="1" />
		<edge from-layer="939" from-port="2" to-layer="941" to-port="0" />
		<edge from-layer="940" from-port="1" to-layer="941" to-port="1" />
		<edge from-layer="941" from-port="2" to-layer="943" to-port="0" />
		<edge from-layer="942" from-port="0" to-layer="943" to-port="1" />
		<edge from-layer="943" from-port="2" to-layer="944" to-port="1" />
		<edge from-layer="944" from-port="2" to-layer="946" to-port="0" />
		<edge from-layer="945" from-port="0" to-layer="946" to-port="1" />
		<edge from-layer="946" from-port="2" to-layer="948" to-port="0" />
		<edge from-layer="947" from-port="0" to-layer="948" to-port="1" />
		<edge from-layer="948" from-port="2" to-layer="954" to-port="0" />
		<edge from-layer="949" from-port="0" to-layer="950" to-port="1" />
		<edge from-layer="950" from-port="3" to-layer="953" to-port="0" />
		<edge from-layer="951" from-port="0" to-layer="953" to-port="1" />
		<edge from-layer="952" from-port="0" to-layer="953" to-port="2" />
		<edge from-layer="953" from-port="3" to-layer="954" to-port="1" />
		<edge from-layer="954" from-port="2" to-layer="956" to-port="1" />
		<edge from-layer="955" from-port="0" to-layer="956" to-port="2" />
		<edge from-layer="956" from-port="3" to-layer="982" to-port="0" />
		<edge from-layer="956" from-port="3" to-layer="957" to-port="0" />
		<edge from-layer="957" from-port="1" to-layer="960" to-port="0" />
		<edge from-layer="957" from-port="1" to-layer="977" to-port="0" />
		<edge from-layer="958" from-port="0" to-layer="960" to-port="1" />
		<edge from-layer="959" from-port="0" to-layer="960" to-port="2" />
		<edge from-layer="959" from-port="0" to-layer="977" to-port="2" />
		<edge from-layer="960" from-port="3" to-layer="962" to-port="0" />
		<edge from-layer="961" from-port="0" to-layer="962" to-port="1" />
		<edge from-layer="962" from-port="2" to-layer="963" to-port="1" />
		<edge from-layer="963" from-port="2" to-layer="964" to-port="1" />
		<edge from-layer="964" from-port="2" to-layer="965" to-port="0" />
		<edge from-layer="964" from-port="2" to-layer="974" to-port="0" />
		<edge from-layer="965" from-port="1" to-layer="969" to-port="0" />
		<edge from-layer="965" from-port="1" to-layer="1006" to-port="0" />
		<edge from-layer="966" from-port="0" to-layer="969" to-port="1" />
		<edge from-layer="967" from-port="0" to-layer="969" to-port="2" />
		<edge from-layer="968" from-port="0" to-layer="969" to-port="3" />
		<edge from-layer="969" from-port="4" to-layer="971" to-port="0" />
		<edge from-layer="970" from-port="0" to-layer="971" to-port="1" />
		<edge from-layer="971" from-port="2" to-layer="973" to-port="0" />
		<edge from-layer="972" from-port="0" to-layer="973" to-port="1" />
		<edge from-layer="973" from-port="2" to-layer="974" to-port="1" />
		<edge from-layer="974" from-port="2" to-layer="1010" to-port="0" />
		<edge from-layer="975" from-port="0" to-layer="981" to-port="0" />
		<edge from-layer="976" from-port="0" to-layer="977" to-port="1" />
		<edge from-layer="977" from-port="3" to-layer="980" to-port="0" />
		<edge from-layer="978" from-port="0" to-layer="980" to-port="1" />
		<edge from-layer="979" from-port="0" to-layer="980" to-port="2" />
		<edge from-layer="980" from-port="3" to-layer="981" to-port="1" />
		<edge from-layer="981" from-port="2" to-layer="982" to-port="1" />
		<edge from-layer="982" from-port="2" to-layer="985" to-port="0" />
		<edge from-layer="982" from-port="2" to-layer="1016" to-port="0" />
		<edge from-layer="982" from-port="2" to-layer="1025" to-port="0" />
		<edge from-layer="983" from-port="0" to-layer="985" to-port="1" />
		<edge from-layer="984" from-port="0" to-layer="985" to-port="2" />
		<edge from-layer="985" from-port="3" to-layer="987" to-port="0" />
		<edge from-layer="985" from-port="3" to-layer="998" to-port="0" />
		<edge from-layer="986" from-port="0" to-layer="991" to-port="0" />
		<edge from-layer="987" from-port="1" to-layer="990" to-port="0" />
		<edge from-layer="988" from-port="0" to-layer="990" to-port="1" />
		<edge from-layer="989" from-port="0" to-layer="990" to-port="2" />
		<edge from-layer="990" from-port="3" to-layer="993" to-port="2" />
		<edge from-layer="990" from-port="3" to-layer="991" to-port="1" />
		<edge from-layer="991" from-port="2" to-layer="993" to-port="0" />
		<edge from-layer="992" from-port="0" to-layer="993" to-port="1" />
		<edge from-layer="993" from-port="3" to-layer="995" to-port="0" />
		<edge from-layer="994" from-port="0" to-layer="995" to-port="1" />
		<edge from-layer="995" from-port="2" to-layer="997" to-port="0" />
		<edge from-layer="996" from-port="0" to-layer="997" to-port="1" />
		<edge from-layer="997" from-port="2" to-layer="998" to-port="1" />
		<edge from-layer="998" from-port="3" to-layer="1008" to-port="0" />
		<edge from-layer="998" from-port="3" to-layer="1030" to-port="0" />
		<edge from-layer="999" from-port="0" to-layer="1001" to-port="0" />
		<edge from-layer="1000" from-port="0" to-layer="1001" to-port="2" />
		<edge from-layer="1001" from-port="3" to-layer="1003" to-port="0" />
		<edge from-layer="1002" from-port="0" to-layer="1003" to-port="1" />
		<edge from-layer="1003" from-port="2" to-layer="1007" to-port="0" />
		<edge from-layer="1003" from-port="2" to-layer="1029" to-port="0" />
		<edge from-layer="1004" from-port="0" to-layer="1006" to-port="1" />
		<edge from-layer="1005" from-port="0" to-layer="1006" to-port="2" />
		<edge from-layer="1006" from-port="3" to-layer="1007" to-port="1" />
		<edge from-layer="1007" from-port="2" to-layer="1008" to-port="1" />
		<edge from-layer="1008" from-port="2" to-layer="1013" to-port="0" />
		<edge from-layer="1008" from-port="2" to-layer="1010" to-port="1" />
		<edge from-layer="1009" from-port="0" to-layer="1010" to-port="2" />
		<edge from-layer="1010" from-port="3" to-layer="1012" to-port="0" />
		<edge from-layer="1011" from-port="0" to-layer="1012" to-port="1" />
		<edge from-layer="1012" from-port="2" to-layer="1014" to-port="0" />
		<edge from-layer="1013" from-port="1" to-layer="1014" to-port="1" />
		<edge from-layer="1014" from-port="2" to-layer="1015" to-port="0" />
		<edge from-layer="1016" from-port="1" to-layer="1020" to-port="0" />
		<edge from-layer="1016" from-port="1" to-layer="1036" to-port="0" />
		<edge from-layer="1016" from-port="1" to-layer="1028" to-port="0" />
		<edge from-layer="1017" from-port="0" to-layer="1020" to-port="1" />
		<edge from-layer="1018" from-port="0" to-layer="1020" to-port="2" />
		<edge from-layer="1019" from-port="0" to-layer="1020" to-port="3" />
		<edge from-layer="1020" from-port="4" to-layer="1022" to-port="0" />
		<edge from-layer="1021" from-port="0" to-layer="1022" to-port="1" />
		<edge from-layer="1022" from-port="2" to-layer="1024" to-port="0" />
		<edge from-layer="1023" from-port="0" to-layer="1024" to-port="1" />
		<edge from-layer="1024" from-port="2" to-layer="1025" to-port="1" />
		<edge from-layer="1025" from-port="2" to-layer="1032" to-port="0" />
		<edge from-layer="1026" from-port="0" to-layer="1028" to-port="1" />
		<edge from-layer="1027" from-port="0" to-layer="1028" to-port="2" />
		<edge from-layer="1028" from-port="3" to-layer="1029" to-port="1" />
		<edge from-layer="1029" from-port="2" to-layer="1030" to-port="1" />
		<edge from-layer="1030" from-port="2" to-layer="1032" to-port="1" />
		<edge from-layer="1030" from-port="2" to-layer="1039" to-port="0" />
		<edge from-layer="1031" from-port="0" to-layer="1032" to-port="2" />
		<edge from-layer="1032" from-port="3" to-layer="1038" to-port="0" />
		<edge from-layer="1033" from-port="0" to-layer="1037" to-port="0" />
		<edge from-layer="1034" from-port="0" to-layer="1036" to-port="1" />
		<edge from-layer="1035" from-port="0" to-layer="1036" to-port="2" />
		<edge from-layer="1036" from-port="3" to-layer="1037" to-port="1" />
		<edge from-layer="1036" from-port="3" to-layer="1040" to-port="1" />
		<edge from-layer="1037" from-port="2" to-layer="1038" to-port="1" />
		<edge from-layer="1038" from-port="2" to-layer="1041" to-port="0" />
		<edge from-layer="1039" from-port="1" to-layer="1040" to-port="0" />
		<edge from-layer="1040" from-port="2" to-layer="1041" to-port="1" />
		<edge from-layer="1041" from-port="2" to-layer="1042" to-port="0" />
	</edges>
	<rt_info>
		<MO_version value="2023.0.0-10926-b4452d56304-releases/2023/0" />
		<Runtime_version value="2023.0.0-10926-b4452d56304-releases/2023/0" />
		<conversion_parameters>
			<input value="image" />
			<input_model value="DIR/model_ready.onnx" />
			<input_shape value="[-1, 3, 416, 416]" />
			<is_python_api_used value="False" />
			<mean_values value="[123.675, 116.28, 103.53]" />
			<model_name value="model" />
			<output value="boxes,labels" />
			<output_dir value="DIR" />
			<scale_values value="[58.395, 57.12, 57.375]" />
		</conversion_parameters>
		<legacy_frontend value="False" />
		<model_info>
			<confidence_threshold value="0.525" />
			<iou_threshold value="0.5" />
			<label_ids value="0" />
			<labels value="glass_bottle" />
			<model_type value="ssd" />
			<task_type value="detection" />
		</model_info>
	</rt_info>
</net>
